CartPole-v1_policy_net.pth (torch, 172256 bytes, 20 tensors)

weight f4 [16, 3, 5, 5]
00000000: 8761 b9bd 89fa 7ebd a859 15bd 5c6a 283d
00000010: cc51 29bd e4f0 e6bb bbc4 993c 13bd 9e3d
00000020: 3a28 91bd 0862 83bd 6375 3ebd 78ed db3d
00000030: c7b9 1bbd 100d 7bbc 8d5f 5e3d a7c6 693b
00000040: bd98 a73d d4f3 9bbc d4b4 d9bd 2ffa 08bd
00000050: 27ed 343d d305 3f3d 7280 51bd 02ea 78bd
00000060: cc91 c53d 3dad 9cbd fef5 e93d d404 c43c
00000070: 9419 00be 29ec ecbc 7fe4 c9bb f88a a8bb
00000080: dfb9 40bd a891 e43d 2ba8 643d 0906 2cbc
00000090: 83ab 6f3c b067 88bd c9c3 763b 8f49 b23d
000000a0: 01b6 4dbb 5752 98bd eed6 933d 3335 303d
000000b0: f6f7 f33d 71c2 4dbd a679 e4bd a426 093d
000000c0: 50a5 023d 1ac1 2d3c 40e3 e63b daeb 443d
000000d0: b720 00bd 0207 9d3c f40d 98bd e282 fd3c
000000e0: cbb0 acbd 7079 bbbb 4f44 98bc b834 49bd
000000f0: 8e15 e93d 486d 9a3d 20ae 243d 1893 b53d
00000100: 87a7 95bd b4ee 39b9 1f9c 8a3d 34d2 f33b
00000110: 18af 13bd 4fab 753d fb3b 7dbd f873 dfbd
00000120: be31 9dbd 7c76 d73c 595e 1dbd 9c04 253d
00000130: 373a bcbd 799d a23d 1e6a 95bd 3f8f b03c
00000140: 5240 003d 548a 213c c906 f4bd d1a2 0a3e
00000150: 0664 023d 5e95 bd3c 0896 af3d 4d1e 33bd
00000160: 6ead a93d 30bb d2bd a92b d7bc 9126 dcbb
00000170: 64e3 b73d d341 10bd f0bc 9b3d 7d00 f2bc
00000180: 2a6f 0b3d 7942 e73d 4ed9 87bd 6e96 503d
00000190: f23b cc3d 2e78 0d3b d24c 1ebd 13f2 65bd
000001a0: 8054 a53d cca8 9ebb 805a a3bd efad 883d
000001b0: e7aa 963d b469 df3d 143c 2fbd 1e85 64bd
000001c0: 0dcf 143d c319 6a3d 37e2 a0bc d995 e9bd
000001d0: 8f9f 6b3b 21c2 aebd 38d0 943c 527f 383d
000001e0: 5712 cb3c 02ef ccbb e519 9cbd c589 9ebd
000001f0: 2f5f bd3c 6fe4 e83d 3453 9a3d 3108 213d
00000200: 9e12 d1bd e9bd 783d a834 4dbc f4ff 893d
00000210: 8b9d 3a3d 1a90 c03c 9f1b 1ebb 6da6 50bd
00000220: dcd3 413d 7699 d73d 7cbe 6bbd 70cb a1bd
00000230: 2521 9e3d b0ea 49bd 2a51 6cbd 56a7 1cbd
00000240: 4bee d2bd 0524 bebd d843 dbbd cc5f dfbc
00000250: 6559 40bd 3afb 293c bf4e c53d 0b82 09bd
00000260: 92ba ee3d 12bd 63bd e18b a2bd 5331 d8bd
00000270: c990 92bc 473c b33c 199c 753d fcb3 f23c
00000280: 9e11 a2bd 6448 8dbd 3752 c0bd e900 513d
00000290: f7fb d43d 680b 1fbd 9346 9fbc 34fa c53d
000002a0: e7fe cd3b 263d dbbd 0238 bc3d fcbc 4bbd
000002b0: b0fa 4c3d c544 dfbd 807c bfbd cc26 aa3d
000002c0: d814 d53d b329 70bd af9e 053d f9cc ba3d
000002d0: d7e1 a1bd 75ed 653d de21 4b3c 8a00 073e
000002e0: 2278 53bd 3629 c4bd 9891 d53d 2f46 5b3d
000002f0: 8838 433b 41c6 be3d aee7 c93d 55d8 ee3d
00000300: df46 0ebd 7bb0 c7bd eed9 183d 49a0 ea3d
00000310: 0f49 e63c fb56 9a3d 874a b1bd f459 e63d
00000320: f860 983d 1476 3abc 6e8f 9bbc 1014 61bd
00000330: d69c 4d3d 6434 93bb 650d 6cbc dd60 6bbd
00000340: b562 69bb 6862 f33c e0f4 853d 38e5 72bd
00000350: 8463 45bd 2088 473d e458 163c a010 d3bd
00000360: 5ff5 cf3d c762 d13d 8f6a 59bd 1b26 9c3c
00000370: 7e39 a0bd f8fd 8ebb f1bf fbbc fe1e f3bd
00000380: c0e8 383d f703 cc3d 67e4 e23c 6fcc ddbb
00000390: 7e0d a53d 7d91 983d 7552 a63d 69c9 cebd
000003a0: 1224 df3c c91d 29bd d655 873d dc4a 813d
000003b0: 0935 88bd f6cd ae3d 61ff 0f3d a200 133d
000003c0: 58a4 4bbd d211 b4bd 1250 b13d 42bb cbbc
000003d0: 5812 3dbd 3319 e0bd a872 ccbd e089 a73d
000003e0: 706e 7c3d c78b 3cbd 669d 963d 8ea9 913d
000003f0: 6b3b 7ebd 4afa 82bd 607f 343d f0f3 333b
-0.09051805 -0.062250648 -0.036462456 0.041117057 -0.041337773 -0.0070477594 0.018770566 0.07750907
-0.07087751 -0.06415182 -0.046498667 0.10738653 -0.038018968 -0.015322939 0.054290343 0.0035671385
0.081834294 -0.019037165 -0.10630193 -0.03344172 0.04417148 0.046636414 -0.051147886 -0.060770042
0.09646949 -0.0765023 0.114238724 0.023928083 -0.12509757 -0.028921204 -0.006161272 -0.0051435195
-0.04705226 0.11160594 0.05582444 -0.010499486 0.014628294 -0.06660402 0.0037653318 0.087054364
-0.0031389 -0.0743758 0.07218729 0.043019485 0.11912529 -0.050234262 -0.11156015 0.033484116
0.031895936 0.010605121 0.0070461333 0.048076488 -0.0312812 0.01916838 -0.07424536 0.030946199
-0.08432158 -0.0057212636 -0.01858726 -0.049122542 0.11381064 0.07540375 0.04020512 0.088659465
-0.07307344 -0.00017731899 0.06768059 0.0074408296 -0.036055654 0.059977826 -0.06182478 -0.10910791
-0.07675503 0.026301615 -0.038420055 0.0402876 -0.09190791 0.07940192 -0.07295631 0.02155268
0.03131134 0.00985964 -0.11915357 0.13538672 0.03183367 0.023142513 0.08573538 -0.04373007
0.08285032 -0.102896094 -0.026265936 -0.0067184647 0.08978918 -0.035219025 0.07604396 -0.029541248
0.03404156 0.112919755 -0.066332445 0.05092471 0.09972371 0.0021586525 -0.03864748 -0.056139063
0.08072758 -0.0048418995 -0.07976246 0.066738 0.07356816 0.10908833 -0.042781904 -0.055791013
0.03633027 0.057153475 -0.019639118 -0.11405534 0.0035953259 -0.08533121 0.018165693 0.045043297
0.024789019 -0.006254078 -0.076221265 -0.07741121 0.023116676 0.11371695 0.07535401 0.039314453
-0.10208629 0.060727987 -0.012524761 0.06738272 0.0455604 0.023506213 -0.002412535 -0.050939966
0.047321185 0.10527317 -0.057554707 -0.07900131 0.077211656 -0.04929608 -0.05769459 -0.03824552
-0.10299357 -0.09284214 -0.107062995 -0.02726736 -0.046960253 0.0103748385 0.0963416 -0.033571284
0.11656679 -0.055600233 -0.07936836 -0.10556283 -0.017891305 0.021879328 0.05996332 0.029626839
-0.079135165 -0.06898573 -0.09390681 0.05102626 0.10399621 -0.038829237 -0.019442832 0.09666863
0.0062864902 -0.107050225 0.0919037 -0.049740776 0.05004376 -0.109017886 -0.09349918 0.08308181
0.10404366 -0.058633517 0.032622036 0.09121127 -0.07904404 0.05613466 0.012398211 0.131838
-0.05162824 -0.09578173 0.104281604 0.05353373 0.0029788334 0.09315158 0.098586425 0.11662356
-0.034735557 -0.09750458 0.03731721 0.11456353 0.028111009 0.075361215 -0.08656793 0.11247626
0.0744037 -0.011380691 -0.018989291 -0.054950774 0.0501984 -0.0044923294 -0.01440749 -0.057465423
-0.0035611812 0.02971001 0.06540847 -0.05930063 -0.04819061 0.048713803 0.009176467 -0.10305905
0.10154223 0.102239184 -0.053080138 0.019061139 -0.07823466 -0.0043637715 -0.030731173 -0.11871146
0.045143843 0.09961694 0.027696801 -0.006768755 0.08059214 0.07449625 0.08121196 -0.1009701
0.02723888 -0.04128817 0.06608169 0.063131064 -0.06650741 0.08535378 0.035155658 0.035889275
-0.049717277 -0.087924615 0.0865785 -0.024869565 -0.046160072 -0.10942306 -0.099828064 0.081805944
0.06162876 -0.04603174 0.0735424 0.07112418 -0.062068384 -0.06395395 0.044066787 0.002745863

bias f4 [16]
00000000: 360a 933c 4aa6 f8bd 46a2 99bc 9dd6 ea3d
00000010: 6ff1 e0bd a360 bb3d 4df1 903c 76fd 8cbc
00000020: 6c7b 313d 5352 3bbd 869f 863d 20b2 923d
00000030: 118c 303a 57af aa3d 5ff3 d9bd 3ccc b33a
0.017949205 -0.12141092 -0.018754136 0.114667155 -0.1098355 0.09149291 0.017693186 -0.017210703
0.043330595 -0.045732807 0.065733954 0.07162881 0.00067347387 0.08334225 -0.106421225 0.0013717483

weight f4 [16]
00000000: b3d4 803f 33e0 7f3f 3fc1 803f 1ec0 7c3f
00000010: 7e7c 823f 4a9c 7e3f 2ecc 803f 5e23 803f
00000020: 665d 7f3f f455 7c3f 9243 803f e8db 803f
00000030: ba72 823f a5bc 7e3f 5610 7a3f 6a13 7d3f
1.0064911 0.99951476 1.0058974 0.9873065 1.0194242 0.9945723 1.0062311 1.0010793
0.9975189 0.98568654 1.0020621 1.006711 1.0191262 0.995066 0.97681177 0.9885775

bias f4 [16]
00000000: 432b 88bb c7fa 95bb bf5e 97bb f0e7 893c
00000010: 0026 b0bb ec0f 29bb 4e9b 88bb acca 723c
00000020: 93bb 8b3c 6509 da3b cd16 8c3b 0514 f73c
00000030: 1696 ca3b ee52 e93b 78c0 c23b 695d e7bb
-0.004155548 -0.004577014 -0.004619449 0.01683423 -0.0053756237 -0.0025796844 -0.0041689044 0.014818829
0.017057216 0.006653952 0.004275179 0.030160913 0.0061824424 0.0071204817 0.005943354 -0.007060696

running_mean f4 [16]
00000000: f540 913c f612 f6bd 68d9 96bc 3071 ed3d
00000010: b638 e1bd eb6f bc3d f045 8d3c 7949 8fbc
00000020: af3b 303d 1bb4 40bd 3bb8 883d 1839 913d
00000030: 3e30 323a e218 aa3d 5d6c dabd d7f8 af3a
0.01773117 -0.12015335 -0.018414214 0.115938544 -0.10997145 0.09201034 0.017245263 -0.01749109
0.04302567 -0.047046762 0.06675764 0.07090968 0.000679735 0.08305527 -0.106652 0.00134256

running_var f4 [16]
00000000: bce1 e337 202b 1a38 a18b c638 455c 0e39
00000010: 96fd 6f38 2c34 3839 48c7 c537 d847 d138
00000020: 5fc8 2239 f36a 0639 a5fa 6338 0d03 6639
00000030: 0847 d837 b38f cd38 18ab bc39 bcaa b538
2.7165624e-05 3.6756624e-05 9.467384e-05 0.00013576548 5.721821e-05 0.00017567043 2.3577028e-05 9.9792785e-05
0.00015524168 0.00012819078 5.435445e-05 0.00021935646 2.5782283e-05 9.801928e-05 0.0003598563 8.662554e-05

weight f4 [32, 16, 5, 5]
00000000: 4c97 65bd 392b d3bc ed2a c2bc f106 01bc
00000010: acc5 203d 8193 043c 6fad 883c 5730 36bb
00000020: 55d4 893c 1669 423d bb57 a3bb 29b1 24bb
00000030: c5d6 97bb 01a5 4f3d 8020 f7bc 1480 843a
00000040: a676 5d3d 59a8 48bd 2e75 2d3d 7f90 2ebd
00000050: 1e64 56bd 939b 35bd 157c 8fbb 9938 163c
00000060: 00bb fabb bc4a 52bd f328 683c 34a5 0c3d
00000070: 5f22 34bc 9756 f83c 3ddc 763c e9f0 21bd
00000080: f51d a7bc d871 8f3c 0a8a c43c 375b 37bd
00000090: 86ef 083d 3039 17bd f752 db3c e2df 15bd
000000a0: 8bca 3abc cac1 04bd 0a95 5ebd 59d2 023c
000000b0: da8e 663d a350 77bb 9fe7 ecbc be45 a5bb
000000c0: 4cc2 dbbc eaab 0f3d 9d90 dd3c 5194 38bd
000000d0: 3dc0 063c c137 42bc 2ec7 ea3c 11f0 fabc
000000e0: 04c2 4d3d 11fd 603c f405 0cbd 9449 d53c
000000f0: cb75 c6bc 7dfc aa3c f8de d2bb 2e60 0a3c
00000100: 7290 de3c 57d6 57bd a42e 443c b4b4 39bd
00000110: 7ffa f2bb e567 213c 129c 25bd 9422 113d
00000120: 3937 e83c ad5e 6e3b 85a7 f5bc 62a0 b4bc
00000130: 7a9f ddbc c6a9 553c d18a 5bbd 7159 5abc
00000140: 4236 bd3c aac6 0c3d 0935 42bd c988 76bd
00000150: a5e7 b3bc 58d3 59bb 35c9 7d3c 4913 88bc
00000160: bd01 8fbb bb86 213d 6d79 fa3c f688 ff3b
00000170: b4cb 533c 4dd6 28bd 88e5 0a3d 2003 a2bc
00000180: faf9 18bd 220c a6bc 35d9 123c 2c8f 00bd
00000190: e4db 483c 389f d03c 53ad 98bc 6829 57bd
000001a0: bac9 d63c 46cc 6dbc 6c55 32bd f883 1e3d
000001b0: 8b81 1bbc da9c 5d3c 5f61 bf3b bcb6 ba3b
000001c0: ae35 c53b 4a9e ad3c 8924 b4bc b006 9cbc
000001d0: cc09 a3bc 6768 35bd 8cf5 f9bc 4f6a 7f3c
000001e0: e0c5 363d fef3 573c 146a 4c3d 6c89 043d
000001f0: 97c0 073d 6410 59bd e29e b0bc 50a8 f9bb
00000200: b75d 77bd 852a d2bc b1a4 5c3c 0f45 0f3d
00000210: a1a3 8bbc 6492 fc3c 44b1 f53c 3f08 1ebd
00000220: a8b4 803b 7909 793c cd57 9cbb 37cb 563d
00000230: d2df 583d 5bcb 20bd 49af 60bd ceb9 c4bb
00000240: cd90 c13c 6f80 2b3d de13 04bd 0c61 853c
00000250: 2667 5a3d a686 6d3c e0e1 26bb 0fc7 4e3c
00000260: 6f32 7cbc 3bb8 4bbd 8589 d93a ed19 153c
00000270: a879 503d 5e90 333d 3476 22bd 547f 0d3d
00000280: 3396 193d 5a07 8bbc ac8f 5a3c 3b52 af3c
00000290: 6473 c0bc 717c 533c 0d57 a63c 6381 4bbd
000002a0: ebb5 0d3d 223d ea3c d78a 4e3c 8256 33bc
000002b0: a8b2 e3bc cb60 423d bd42 3dba eeb2 efbc
000002c0: 92b0 d5bc 2176 8d3c 0ef4 46bd 76bd 9ebc
000002d0: eacd 133d 8502 c7bb 027a d43c d182 2cbd
000002e0: d587 bfb9 24f8 af3b 5c2d 59bd 6722 cc3c
000002f0: 0180 a2bc 1723 3a3d 4f9e 183d 844f 5abd
00000300: 4fb3 c9bc 54b0 c8bc 082a 10bc 54f0 b83c
00000310: a6cd 04bd 377a 1dbc f066 86bb 70bc 27bd
00000320: 1855 e2bc b044 6d3c da63 32bd 47f6 32bd
00000330: 749d 80bb 64bc 0ebd b747 acbc 7b5d dc3b
00000340: 1259 59bd f300 053d 117f 8b3c e210 653c
00000350: 821f 34bd ed86 163d 4b70 18bc dbad 26bc
00000360: 6a9e 153c 221e 00bd 6e2f 3dbc 0bf4 7ebb
00000370: 5d65 bc3c 75cb d8bb 6cc2 373c 2d5b ef3c
00000380: 70f0 49bd 6139 34bc 5675 063d 56fb b1bc
00000390: 7d59 64bd 1c83 0abb 7194 2d3d 4741 233d
000003a0: 4202 78bb 027a e13b d353 a83c 3b2c 183d
000003b0: a550 42bd b73b 343c 0dac 65bd 09a6 7abc
000003c0: 562d f9ba 2590 3d3c e3a7 913b c94a b43c
000003d0: a209 eebc bd01 c4bc 8db4 8abb c2a7 15bc
000003e0: c02d a6bb 1fcd 753c 4efe 32bb e6f4 d13a
000003f0: bbd0 3d3d 53a9 9bbc ed87 c23c 80fc 9a3c
-0.05605249 -0.025777446 -0.02370211 -0.00787519 0.039251015 0.008091808 0.016684262 -0.002779981
0.01682488 0.0474635 -0.0049848235 -0.002513001 -0.004633757 0.05069447 -0.030166864 0.0010108971
0.05406823 -0.048988674 0.04234808 -0.04261827 -0.052341573 -0.04433782 -0.0043788054 0.009168767
-0.0076516867 -0.051340804 0.014169919 0.034337237 -0.010994523 0.030314727 0.015067157 -0.03953639
-0.020400027 0.01751034 0.023991603 -0.044764724 0.033431552 -0.036919773 0.02677296 -0.036590464
-0.011400829 -0.032411374 -0.054341353 0.007984721 0.056288578 -0.0037737272 -0.02891904 -0.0050437143
-0.026826046 0.03507606 0.027046496 -0.04506332 0.008224544 -0.011854113 0.02865943 -0.03063205
0.050233856 0.013732211 -0.034185365 0.026036061 -0.02422609 0.020872349 -0.0064352714 0.008445783
0.027168486 -0.052694645 0.011974011 -0.045338348 -0.0074151154 0.009851431 -0.040432043 0.035433367
0.028346645 0.003637235 -0.029987106 -0.022049133 -0.027053583 0.013040965 -0.053599183 -0.013326989
0.023097161 0.03436915 -0.04741386 -0.060189042 -0.021961043 -0.0033237543 0.015489866 -0.016610758
-0.004364221 0.03943513 0.030575478 0.0077983094 0.012926985 -0.04122 0.033910304 -0.01977688
-0.03734777 -0.020269457 0.008962919 -0.03138654 0.012259457 0.025466546 -0.018637335 -0.052529722
0.026219238 -0.014514035 -0.043538496 0.038700074 -0.009491335 0.013526166 0.005840465 0.005698053
0.006018362 0.021193642 -0.021990078 -0.019046158 -0.019902132 -0.04428902 -0.030512594 0.015589311
0.044622302 0.013180731 0.04990585 0.03235762 0.033142652 -0.052994147 -0.021560136 -0.0076189414
-0.060392108 -0.02565504 0.013467 0.03497797 -0.017045798 0.030831523 0.029991753 -0.038582083
0.003927786 0.015200012 -0.004771209 0.052439895 0.052947827 -0.039256435 -0.054854665 -0.006003595
0.023628617 0.04187053 -0.03224551 0.016281627 0.053321026 0.014497435 -0.0025464222 0.012620701
-0.015392884 -0.049736243 0.001659677 0.0091004195 0.05089727 0.04383885 -0.03966351 0.034545258
0.037496757 -0.016971279 0.013339918 0.021401515 -0.023492523 0.012908087 0.02030518 -0.04968394
0.03459732 0.028593604 0.012606344 -0.010945918 -0.02779515 0.04745559 -0.00072197226 -0.029260125
-0.026085172 0.017268242 -0.048572592 -0.019377451 0.036085047 -0.0060732984 0.025937084 -0.042116944
-0.00036531562 0.005370157 -0.053021774 0.024918748 -0.019836428 0.04544362 0.03726035 -0.05329849
-0.024621634 -0.024498142 -0.0087990835 0.022575535 -0.032422684 -0.009611658 -0.0041016266 -0.040951192
-0.027628466 0.014481708 -0.043552257 -0.0436919 -0.00392502 -0.034847632 -0.02103029 0.006725011
-0.05306346 0.03247161 0.017028363 0.013981076 -0.04397536 0.03674977 -0.0093041165 -0.010173286
0.009132007 -0.031278737 -0.011546953 -0.0038902785 0.022997553 -0.006616051 0.011215787 0.02921828
-0.049301565 -0.011000008 0.032826744 -0.021726292 -0.055749405 -0.0021135276 0.042377893 0.039857175
-0.0037843143 0.0068809995 0.020547783 0.037151556 -0.04744019 0.011000565 -0.056072284 -0.015298375
-0.0019010704 0.011570011 0.0044450625 0.022008317 -0.029057328 -0.02392661 -0.004232949 -0.009134235
-0.005071372 0.015002518 -0.0027312222 0.001601842 0.04634164 -0.019001639 0.023746455 0.01891923

bias f4 [32]
00000000: de4c 19bd 9aa8 4c3d 2f05 20bc bd94 103d
00000010: 8374 ab3c 61b2 6b3c 446a 0cbd c4de 3dbc
00000020: fb97 b63c 4c46 563c 577b dc3c 9f14 55bd
00000030: 3aae e43c 8631 88bb fe0a 0abd 9011 543c
00000040: 2ec3 34bd 02b9 e33a f933 57bd 4d7e 79bd
00000050: fbb8 34bd 6c99 ec3c 4de4 c5bc d7f9 86bc
00000060: ec04 dcbc 45eb 3fbd 5472 d43c 5c90 e8ba
00000070: dc65 5c3d b962 3a3d 0e6b 83ba f2f0 2bbd
-0.037426822 0.04996548 -0.009766861 0.035298098 0.02092958 0.014385791 -0.03428103 -0.011588756
0.022289267 0.0130782835 0.026914282 -0.05202162 0.027915109 -0.0041562943 -0.03370189 0.01294364
-0.04413145 0.0017373862 -0.0525398 -0.060911465 -0.044121724 0.028881751 -0.024156714 -0.016476555
-0.026857816 -0.04685523 0.025933422 -0.0017743218 0.05380808 0.045504306 -0.0010026412 -0.04197783

weight f4 [32]
00000000: 8817 7e3f 0d69 7d3f f631 7e3f 5dfe 7f3f
00000010: ee48 7d3f 9e14 7e3f cf0d 813f a753 7f3f
00000020: 30c3 7d3f 190c 803f d9a7 7f3f fcd0 7f3f
00000030: 60ba 803f 01fc 823f 5c43 803f fbdf 7d3f
00000040: 0bbb 803f 689e 7a3f 1135 803f 3de0 7f3f
00000050: eefb 803f dede 823f 9363 803f a56c 803f
00000060: 5c0f 7d3f b187 803f 83d5 803f 8fd1 803f
00000070: a2e5 7d3f 6737 803f eb1f 803f 7fcc 7d3f
0.99254656 0.9898842 0.99294984 0.999975 0.98939407 0.9925021 1.0082339 0.9973702
0.9912596 1.0003692 0.9986549 0.9992826 1.0056877 1.0233155 1.0020556 0.9916989
1.0057081 0.9789796 1.0016195 0.99951535 1.0076883 1.0224264 1.0030388 1.0033156
0.9885156 1.004141 1.0065159 1.0063952 0.99178517 1.0016907 1.000974 0.9914016

bias f4 [32]
00000000: 8574 81bb 3638 363c b03f b93b 4546 0f3a
00000010: 4349 443b e1e8 4d3b 0353 6abb bc25 043c
00000020: d851 6f3c d183 683a 0e61 703a 6bb2 8abc
00000030: 2028 9d3c 2a8b 793b 6803 62bc 3550 0c3c
00000040: 2970 05bc 35d3 1b3c 45f5 b63b 6c78 ae3b
00000050: 073f 803b 0ad5 ba3c 241e 483c de03 663c
00000060: 2056 aeba d4b3 b43c ec8e 053c 4b5d 29bb
00000070: bba0 d9bb 1b8c eebb aa01 e33c 4dbe 6bbc
-0.003950658 0.0111218 0.005653344 0.0005465488 0.0029950894 0.0031419324 -0.0035755045 0.008065637
0.014606915 0.000886974 0.0009169736 -0.01693078 0.019184172 0.0038077333 -0.013794757 0.008564045
-0.008144417 0.009510805 0.0055834376 0.005324414 0.0039137634 0.022806663 0.012214217 0.014039008
-0.0013300814 0.022058405 0.008151751 -0.002584296 -0.006641475 -0.0072798855 0.027710754 -0.014388633

running_mean f4 [32]
00000000: 2074 44be 8ae7 b0bd 27df 1ebd 68e8 2b3e
00000010: 0b18 74bd 5826 27be 7be3 713e f2b1 cdbc
00000020: 2f89 93be def1 e93d eeb2 5f3c 48c2 4b3e
00000030: 6905 93be 7318 31be ac6a efbc dd57 42be
00000040: b603 e2bd 3ace 2dbe 858d 37bd cdb8 4d3e
00000050: 52d4 b03c 5da7 e5be 4dd8 053d 5814 5dbe
00000060: 6879 8ebd 469e f13d f117 85be b3a8 863e
00000070: 9d1d 093d 5837 b93d d741 82be 5ec1 8abd
-0.19184923 -0.086379126 -0.038787033 0.16787875 -0.05959324 -0.1632322 0.23621933 -0.025109265
-0.288156 0.11423086 0.0136535 0.19898331 -0.28715065 -0.17294483 -0.02922567 -0.1897883
-0.11035864 -0.169732 -0.044812698 0.20090027 0.021585617 -0.4485425 0.032676984 -0.21589792
-0.0695675 0.117977664 -0.25994828 0.26300582 0.033475507 0.09043759 -0.25440857 -0.06775163

running_var f4 [32]
00000000: d067 9a3e d562 7c3e 94f3 813e f90a bc3e
00000010: dda4 593e a470 e33e 82ab 243f b809 ab3e
00000020: bc3b 543f 4b70 873e f6c2 ab3e 5767 093f
00000030: a9bd 333f b781 c83e c0ed 373e 85fb e83e
00000040: 80a4 6c3e 7ee9 4b3f 9335 1e3e 6d05 253f
00000050: daaf 493e 38be bb3f 1cf6 843e 881f cf3e
00000060: eb39 a13e d349 2b3f cea4 3f3f 1a2d 193f
00000070: de51 623e b08c fc3d 09cb 1e3f fbd7 523e
0.30157328 0.24647076 0.25381148 0.3672712 0.21254297 0.44421875 0.643242 0.33405852
0.8290365 0.2645286 0.3354718 0.5367331 0.70211273 0.39161465 0.17961788 0.45504394
0.23109627 0.79653156 0.15450124 0.64461404 0.19695988 1.4667425 0.25969017 0.40453744
0.314895 0.6690952 0.74860847 0.59834445 0.22101542 0.123315215 0.6202856 0.20590203

weight f4 [32, 32, 5, 5]
00000000: a2e9 42bd bd38 7c3b 6ea2 883a 6ae2 95bc
00000010: caf7 2c3d 7e5a e03c 0694 e439 0382 59bc
00000020: 299a 803c 3a5e 4fbc 5118 0a3b b251 d03c
00000030: 1e12 2e3d 9243 28bd 0a1e 9fbc 12f1 3c39
00000040: 0aaa 82bc 25d9 06bd 5c57 c93c 2fd0 adbc
00000050: dc51 663b a271 fcbb e5a6 abbb 6a42 94bb
00000060: 2fbe 99bc d818 2bbc c5d7 5e3c 84bb b2bc
00000070: e52a a43c 6301 113d 04df 89bc 4ac9 4cbc
00000080: df49 ebbc 1559 763c 43cc cbbb 1697 823c
00000090: bd3f 863c 7602 17bd 297a a9bc f326 9bbc
000000a0: be45 1e3c 8e49 ca3b 3ed9 47bb bef3 d9bc
000000b0: 5468 713b 6696 d339 b16a 9d3c 39d9 31bd
000000c0: 464d 0cba f243 ca3b 0ca7 17bd 6506 e2bc
000000d0: b048 d63c c056 75bc 5aa7 e93c f783 39bc
000000e0: f28d b83c 1085 9ebb 9457 173c 4eb2 3c3d
000000f0: 2add f8bc ae1b 6ebc 7520 0e3d 094e f53b
00000100: 1460 bc3b 5c1d cabc d6cb 33bd dded 5ebb
00000110: 5667 73bc 59b1 89bc 50a3 11bd c3ee a3bc
00000120: 4fb3 e83c c627 d83c cd19 26bc c446 9cbc
00000130: dcde b2bc ca78 783c 65e0 12bd d3f6 193d
00000140: 222b b6bc 036e 1dbd 241a 2dbc 5764 f03c
00000150: 933b 14bd 7d44 bdbb 597c 873c c710 43bc
00000160: 9846 8f3b 2a6d 243d 0c7b cdbc 0afd 5c3c
00000170: 617c 8eb9 4e46 cabc 25b4 003d a759 06bd
00000180: e33b b53c 777b 20bc ef99 47bc 7762 01bc
00000190: 51f2 623c 9466 043c c1f9 553c 0914 42ba
000001a0: 28da 0e3d d14b a2bc 67f4 1bbc 9217 33bd
000001b0: 6679 3cbc 59d6 6fbc b829 4dba 93bb 13bc
000001c0: 2bd9 a23c 493d 393d ea20 a8bc 1d0a 3bbb
000001d0: b364 603c 8bce 2cbc 96c1 d7bc cece 0d3d
000001e0: fd2d 91bc 493d c5bc a6a5 bf3c d709 fbba
000001f0: 9924 113c ad71 2e3c 9cd5 c33c 0fae d4bc
00000200: ed73 debc aeb8 f6bc 5e33 34bd 0dc4 81bc
00000210: d512 eebc 16d9 aa3c 4f50 d53b a76c 65bc
00000220: 6cec 883c 4605 a2bc b26b 5fbc 5a6d 2bbc
00000230: 5a63 1a3c c0e3 9dbc 7be5 023d e3b5 3d3c
00000240: 5f3f 453c 0d35 15bb c172 b9bc 4dbf f9bb
00000250: 6e5a 23bc db57 05bd 2c58 84bc e4d6 943c
00000260: 3f8f 503c e324 a73c 777d ce3c 0bc0 c43b
00000270: 1f10 383a f2cb df3c 6533 213d 3fd7 d23b
00000280: 769d ccb8 c96f 11bd 8245 ca3c c5fe 5c3c
00000290: f3e6 a43c 4239 b9ba 8ed6 03bd 8280 ac3c
000002a0: 7a03 e23c 8bb6 273d 3ff9 ab3c ae9e 523c
000002b0: c7b3 233d a666 483c ff8c 263d 96c7 48bc
000002c0: 2605 ecbc 2432 e8bc f50c a4bc 85e2 1b3c
000002d0: e8d2 823c 448d 8a3c f43b 49bd f927 f9bc
000002e0: ce23 afba f89b 8d3c 2c42 aa3c 10af 63bd
000002f0: e288 24bd cd9c d33c 732d debc 024a ccbc
00000300: fbcb c63c 8a79 d23b 5fc7 aebc f559 c4bb
00000310: 974b d2bc 3ad3 5a3c c8b4 463c 21d0 f03c
00000320: 7fc2 a2bb 2576 983c 694a 043c ea40 f03b
00000330: 9373 1f3c 660f f0bc ea58 1dbc 5a32 a93b
00000340: 9c5d e3bc 9720 3abc 023b a5bb c351 18bc
00000350: d477 e83c 619c 4dbc 99d6 b03c b0f0 57bd
00000360: 0eea b3bb c520 bebc 73d8 00bd 0f54 ae3c
00000370: b109 6d3c a9c4 d93c 4165 bfbb ba8a e8bc
00000380: 3e21 a3bc 4476 4dbd 98c3 03bc 6400 2d3d
00000390: c94e 14bb 50bb 4abc 62b4 2a3c 96aa aeb9
000003a0: 8592 06bd 858a d1bc 9f10 8dbc f2c0 febc
000003b0: 0fa2 35bd 7a78 b33c b186 b53b 5441 123c
000003c0: 77c2 703b b3aa 803c 40bb 893b c90c 013d
000003d0: c813 cdbb f7aa 21bd b751 d33c ac6b a8bb
000003e0: e4bb d0bc 4740 323c 4698 cf3b d4fe 12bd
000003f0: c933 bebc 2793 253c 03c7 bc3b 2eb0 90bb
-0.04758609 0.0038485967 0.0010424384 -0.01829644 0.042228498 0.0273869 0.00043597835 -0.013275626
0.01569851 -0.012656743 0.0021071623 0.02542958 0.042497747 -0.041080065 -0.019423503 0.00018018883
-0.015950222 -0.03292193 0.024577789 -0.021217434 0.0035144007 -0.007703976 -0.0052384012 -0.0045245187
-0.018767444 -0.010442935 0.013601248 -0.02181793 0.020039985 0.035401713 -0.016829975 -0.012499163
-0.028721748 0.015035887 -0.0062194183 0.015941184 0.016387815 -0.03686758 -0.020688133 -0.01893947
0.0096601825 0.006173319 -0.0030494477 -0.026605483 0.0036835866 0.00040357112 0.019215913 -0.04342005
-0.0005352091 0.0061726505 -0.037024543 -0.02759094 0.026157707 -0.014974296 0.028522182 -0.011322967
0.022528622 -0.0048376396 0.009237189 0.046068482 -0.030378897 -0.014532967 0.034698922 0.007486109
0.005748758 -0.024672203 -0.043895565 -0.003401629 -0.01485618 -0.016808199 -0.035556138 -0.020011311
0.028405814 0.026386153 -0.010137987 -0.019076712 -0.021834783 0.015165517 -0.03585853 0.037588906
-0.022237364 -0.038434993 -0.010565314 0.02934472 -0.036189627 -0.0057759867 0.016538786 -0.0119058555
0.004372429 0.04014317 -0.025083087 0.013488064 -0.0002717702 -0.024691727 0.0314218 -0.032800343
0.022123283 -0.009795061 -0.012182697 -0.007897011 0.013851718 0.008081097 0.013060034 -0.0007403498
0.03487602 -0.019811543 -0.009518719 -0.04372365 -0.011503553 -0.014638507 -0.0007826346 -0.009016889
0.019878944 0.04522446 -0.020523507 -0.0028539964 0.013695884 -0.010547291 -0.026337426 0.034621052
-0.017722124 -0.024077075 0.023394417 -0.0019152713 0.008858823 0.01064722 0.023905568 -0.025961904
-0.027154887 -0.030117359 -0.0439943 -0.015840555 -0.029061714 0.020855468 0.0065098177 -0.0140029555
0.016714297 -0.019777905 -0.013636516 -0.010463083 0.009423101 -0.019273639 0.03195713 0.01157901
0.012039035 -0.0022767216 -0.022637727 -0.007621682 -0.009970291 -0.03255449 -0.016155325 0.018168874
0.012729465 0.020403331 0.02520631 0.0060043386 0.0007021445 0.027318928 0.039355654 0.0064343507
-9.7568074e-05 -0.035506997 0.024691347 0.013488476 0.020129656 -0.0014131444 -0.032187037 0.021057371
0.027589548 0.04094557 0.020992873 0.012855215 0.03996637 0.012231505 0.040661808 -0.012254616
-0.028811049 -0.028344221 -0.02002571 0.009514456 0.015969709 0.016913064 -0.04912944 -0.030414568
-0.0013362111 0.017286286 0.020783506 -0.055586874 -0.040169604 0.025831604 -0.027121281 -0.024937633
0.024267187 0.00642318 -0.021335302 -0.005992169 -0.02567081 0.013356024 0.012128063 0.029396119
-0.0049670334 0.018611023 0.008074381 0.007331957 0.009732145 -0.029304218 -0.009603718 0.005163473
-0.027754597 -0.011360309 -0.0050424347 -0.009296837 0.028377451 -0.012549491 0.021586703 -0.05271977
-0.005490548 -0.023208985 -0.031456422 0.021280317 0.014467643 0.026583033 -0.005840928 -0.028386462
-0.019913312 -0.050161615 -0.008042239 0.0422367 -0.0022629967 -0.01237376 0.010418983 -0.00033314963
-0.032854576 -0.025578747 -0.01721984 -0.031097863 -0.044344004 0.021908034 0.005539738 0.008926708
0.0036737004 0.015706396 0.00420323 0.031506334 -0.0062584616 -0.039469685 0.0257958 -0.0051397886
-0.025480218 0.010879583 0.006335291 -0.035887554 -0.023218052 0.010105885 0.0057610287 -0.0044155335

bias f4 [32]
00000000: 1ed6 833c d882 e63c 4a4e 07bd 6e9f 533c
00000010: 954d febc b7a1 adbc 1a9a fc3c 0c47 2c3c
00000020: 9b43 e3bc ca62 eeba 8262 763c 4505 ce3c
00000030: 4683 b5bb 1380 d93b 528f f83c aa20 bf3c
00000040: d348 7abc 524f 613c 2343 f3b9 afd5 003d
00000050: 27c2 393c f002 b9bc 7d31 21bd bab5 b83b
00000060: d01f c2bc 785f 823b 1a31 1bbd 2b7b 0e3d
00000070: f462 9f3c cf6d 6a3b fce2 9939 65ad 7ebb
0.01609331 0.028138563 -0.033033647 0.012916429 -0.031042853 -0.021195276 0.0308352 0.010514986
-0.027742198 -0.00181874 0.0150381345 0.025148997 -0.0055393307 0.006637582 0.030341778 0.023331005
-0.015276152 0.013751822 -0.00046398593 0.031453785 0.011337793 -0.022584409 -0.039353836 0.005636898
-0.02369681 0.003978666 -0.037888624 0.03478543 0.019456364 0.0035771017 0.0002935155 -0.0038860675

weight f4 [32]
00000000: 8c17 793f bde6 7f3f 343d 803f a865 7d3f
00000010: 81b2 803f 2465 7b3f b554 7f3f 84b0 7b3f
00000020: ffd7 7f3f efed 7e3f 6db0 7e3f 86ab 813f
00000030: 9f24 7f3f b1ab 7f3f ea53 803f d903 7f3f
00000040: 5eda 813f 5699 7d3f ed5a 7c3f aef5 7e3f
00000050: 50e8 7f3f dd78 813f 6166 7d3f 5be0 7f3f
00000060: 6f34 7f3f 8ab8 803f 6b49 7e3f 3ab0 7e3f
00000070: 63d8 7d3f 2631 813f c821 7d3f 9522 7e3f
0.97301555 0.99961454 1.0018678 0.9898324 1.0054475 0.98201203 0.9973863 0.98316216
0.9993896 0.9958181 0.99487954 1.013047 0.99665254 0.99871355 1.0025609 0.99615246
1.0144765 0.990621 0.9857624 0.9959363 0.99963856 1.011501 0.9898434 0.99951714
0.9968938 1.0056317 0.99330777 0.9948765 0.99158305 1.0093124 0.9887967 0.9927152

bias f4 [32]
00000000: ee7d 7cbc 25f9 ab3b 0bea 4a3c b4be cc3b
00000010: bdd7 0b3c cde8 57bc 893c 203c 4483 80bc
00000020: 6b88 0a3b c390 e938 3d6a c2ba 81c7 873c
00000030: 819e 253c c3a7 e33b 5109 2d3c 44b2 48bb
00000040: 05c2 7f3c 9266 b2bb 211f 97bc f705 dcbb
00000050: 844e 633b 7cc8 863c 8842 95bb 3c15 35bc
00000060: 7622 fe3b 05a3 403c 106d adbb 92b0 e9b8
00000070: 50a7 093b e02d 873c 183e 19bb f2fc 76bb
-0.015410883 0.005248206 0.012384902 0.0062483195 0.008535323 -0.013178063 0.009780058 -0.015687592
0.002113844 0.0001113727 -0.0014832687 0.016574623 0.010108591 0.006947489 0.010561303 -0.0030623833
0.015610223 -0.0054443562 -0.01844746 -0.0067145783 0.003468425 0.01645302 -0.0045550503 -0.011052426
0.007755573 0.011757617 -0.0052925423 -0.000111431946 0.0021004267 0.016501367 -0.0023382958 -0.0037687388

running_mean f4 [32]
00000000: 3adf 83be 7016 66bf f0af 8ebf 24b0 82be
00000010: 091b debf ecfc 0bbe 5ba7 a4bf 950d 873d
00000020: 58f3 39bf 9160 c2be 0d22 7c3e 93d4 b7bf
00000030: 91b6 69bf b4f4 5abf f2fa 81bf 51fd 6fbf
00000040: 89b7 28bf e6c5 74bf 304b 373f 9285 95bf
00000050: d5a5 86bf df92 afbf 0b59 4fbe 6ec3 aa3e
00000060: 74fa 5abf ba56 85bf 7e82 66be 46f7 8ebf
00000070: e6ac 8cbf 020a b4bf 5748 79bf d9cf 0abf
-0.25756246 -0.89877987 -1.1147442 -0.2552501 -1.7352 -0.13670701 -1.2863573 0.065943874
-0.7263694 -0.379643 0.24622364 -1.4361748 -0.912942 -0.8552964 -1.0154707 -0.93745905
-0.6590505 -0.9561447 0.715991 -1.1681387 -1.0519358 -1.3716697 -0.20248811 0.33352226
-0.8553841 -1.0417092 -0.22510716 -1.1169212 -1.0990264 -1.4065554 -0.97376007 -0.542234

running_var f4 [32]
00000000: e637 ee3f 77a7 0f40 9818 5e40 063e 5e3f
00000010: f902 8940 4b8e 643f fe02 a040 e1b3 b93e
00000020: eb26 ff3f ef45 bf3f 2438 a63f 7017 1840
00000030: 441e 4440 89d6 0640 e09a 0540 5187 6c40
00000040: 9f83 b53f 7132 f03f df8a 313f accb 8940
00000050: 295c 0f40 636d 1640 01b4 7e3f b48b ab3e
00000060: 7a63 b33f a8df 5440 0f80 953f c893 0e40
00000070: 6428 6c40 31d7 1940 5e1d 4940 77bb 1040
1.8610809 2.2445962 3.470251 0.8681339 4.281613 0.8927962 5.0003653 0.3627005
1.9933752 1.4943217 1.2985883 2.3764305 3.0643473 2.1068442 2.0875778 3.695759
1.4180793 1.8765393 0.69352525 4.3061123 2.24 2.3504264 0.99493414 0.33505023
1.4014733 3.326151 1.1679705 2.2277699 3.6899652 2.4037592 3.1424174 2.261442

weight f4 [2, 512]
00000000: 2453 8dbc f8a8 173d 2000 f83c 2e27 c13b
00000010: be57 c5bb 4da0 6abb f12e 52bc b01c 2bbc
00000020: 8a79 aebc f0fc b3bc 983d 943c d09f 2a3c
00000030: 23db 30bc 31af 76bc ba66 1dbd 09f9 e83c
00000040: a216 f7bc 540f 0fbc 4e7c a0bc 7776 aa3c
00000050: d21c 03bd 4989 8b3c 19da d33c b49c ff3c
00000060: fc05 103b be48 d13c 1b3c 073d 423f b4bc
00000070: 850c 3b3d 49bd 383d e432 283d 41cc 253d
00000080: 8150 1b3d 5dd8 3c3d 6607 aa3c c0af 08bc
00000090: 1a2f 82ba d2a1 7c3c a638 353c ce68 e63c
000000a0: 603e 9dbc ba26 b03c db09 e93c 2708 103d
000000b0: b895 253c 68b7 f3bc a5f4 fdba f1d6 163d
000000c0: 7cb9 97bc e5e1 02bb 48fb f6bb 8246 023d
000000d0: 1281 b13c f81a 3dbc f7b6 2d3d a551 d9bc
000000e0: 0c0b 8dbc 247f a0bc 987c cc3a 79db 9ebc
000000f0: 87be e33c 31c5 043d bd8c 3e3d 1475 323d
00000100: 357e 203d 9951 efbc 3afb b53c f6dd a4bc
00000110: 357f 413d 9a2e 4b3d b638 85bc 8389 e13c
00000120: 26d6 dd3a f423 533d fa13 bebb f150 dcbc
00000130: dc20 bf3c d61c 0e3d 4521 1e3d 0060 973c
00000140: f868 1abc 3cc1 19bd 06bb 0a3c 638b 153d
00000150: c581 c1bc a8a9 a03b 4c04 aabc ae58 38bd
00000160: e813 a63c a4bb bd3c 9606 11bd c18a e4bb
00000170: 7da5 8ebc cd82 e93c a500 643c 50eb 9e3b
00000180: 6b65 433d 7a1a 9fbc 6124 c43c b206 113d
00000190: 63ee 0abc c735 e93c 0efd 9cbb e6b4 f2ba
000001a0: cd94 413d 16ff 083c 7fa3 3f3d 9124 d1bc
000001b0: a0d6 2bbc b8ce 86bc af43 47bc e379 5d3d
000001c0: 8d2a e0bc 7b0d a5bc dc86 b63c 0d4b 043d
000001d0: a391 dd3a 65be e9bc 53b1 2a3c b5f9 bebc
000001e0: 2860 313d 43ef b7bb 05f6 203d a957 c03c
000001f0: ca28 95bc c0d9 b639 5521 e93c 04d8 9a3c
00000200: 9a3c 2b3d 4d4b e33b ad6b d7bb 602f 2f3a
00000210: 73d3 5fbb 3564 063d 5751 f03c 4acd 21bd
00000220: 8697 5ebc 5932 96bc 7681 bbbc ab7a 273d
00000230: 97a4 9d3c e17a 8d3c 3072 ad3c 57af c3bc
00000240: da46 a3bb f4da 2cba 2591 c73b 7168 913c
00000250: d54c 4a3c 6969 f2ba 3b8f d6bc 2c61 6cbb
00000260: a1a1 e03c 62ad 2d3d 41e0 1c3d 6472 1b3c
00000270: 8519 82bc a65a ef3c 2dcb f6bc 7e3d 423a
00000280: 2642 b6bb 457b 103c 7b2f 3fbc 3256 153d
00000290: 2468 983b 866c 183c f699 bebc 74b0 1fba
000002a0: 2279 c5bc c027 0dbd 735b 6cba cec2 20bc
000002b0: c198 1f3d d157 1abc 312e e43c 1445 f9bc
000002c0: 27d1 dd3c 47ee f33c 6b2c f1bb 7178 3f3d
000002d0: 381e 1b3d d828 6d3c 5243 133d ffa3 143d
000002e0: 6455 be3b 5434 22bc 5d13 a73a 2896 263c
000002f0: 0364 023c 0bf1 e6bc 88ac b33c c88b 733b
00000300: 27b6 4cbc 76f0 0dbc cea3 38bc cc7e 98bc
00000310: f927 ae3c 2304 58bc 127a 4d3d 66e0 db3c
00000320: 7440 c03c 3fca 083c 3eb8 6bbc 8f8e dd3c
00000330: 373d df3c 04b8 383d c2da dabc f2f3 233c
00000340: 2a9a 0d3d 25fa cc3c 01cf 083c d3f4 243d
00000350: f6b3 8d3a dc77 22bd 991d ae3c 26f8 fa3a
00000360: ebf2 94bc 4864 b53b 63a9 87bc 9d21 8bbc
00000370: e98c b03c 23e8 253c bc7e f4bc b043 ba3b
00000380: 9fbd b03c 10cd 853c c9a1 b0bc ecad 173d
00000390: 939f 693c 800f 003d c2ae 773c 4007 813c
000003a0: 249e 2e3d ba7e b0bc 621a 3f3d 1851 c5bc
000003b0: ab2f 5c3d 60fb afbb 0e20 8abc 2b39 253d
000003c0: bd7e c53c 0450 f63c 3ef2 5a3c 0c24 ac3c
000003d0: f706 cabc 3d9b 7bbc dae8 253d 556f 8cbc
000003e0: 86e0 a13c 6520 a7bc 7649 363d 110e 9e3a
000003f0: 348d b8bc cc03 9c3c 0fbd 5d3d b390 043c
-0.017251559 0.037026376 0.030273497 0.005894563 -0.0060224226 -0.0035801113 -0.0128285745 -0.010443851
-0.021298189 -0.021971196 0.018095776 0.010414079 -0.010794434 -0.015056417 -0.038428046 0.028439062
-0.03016216 -0.008731682 -0.019590523 0.020808442 -0.032009907 0.017033236 0.025860833 0.031202652
0.0021976223 0.025547381 0.033016305 -0.02200282 0.045666236 0.04510239 0.041064158 0.040477995
0.03791857 0.046104778 0.020755481 -0.008342683 -0.000993225 0.01541944 0.011060869 0.028126147
-0.019194782 0.021502841 0.028447082 0.035164025 0.0101064965 -0.02975054 -0.0019375278 0.036826078
-0.018521063 -0.001997107 -0.0075372793 0.031805523 0.02166799 -0.011542074 0.042410817 -0.026528189
-0.017217182 -0.019591875 0.0015601097 -0.019391762 0.027800811 0.03241462 0.046520937 0.043568686
0.03918286 -0.029213713 0.02221452 -0.02012537 0.047240455 0.04960499 -0.016262393 0.027531391
0.0016924783 0.05154796 -0.0058007212 -0.026894065 0.023331098 0.03469547 0.038605947 0.018478394
-0.009424441 -0.0375378 0.008467441 0.036509883 -0.02362145 0.004903037 -0.020754002 -0.045006447
0.020273164 0.023160763 -0.03540667 -0.0069745486 -0.017412895 0.028504753 0.013916169 0.004849829
0.04770414 -0.019421805 0.023943128 0.035406776 -0.008479687 0.028468026 -0.0047909087 -0.0018517047
0.047261048 0.0083615985 0.04678678 -0.025530132 -0.010488182 -0.016455993 -0.012162133 0.05407132
-0.02736404 -0.02014803 0.022281103 0.032298137 0.0016904365 -0.02853317 0.010418254 -0.023312429
0.043304592 -0.005613239 0.039297123 0.0234793 -0.018207926 0.00034875982 0.028458277 0.018901832
0.04180584 0.006936467 -0.0065741153 0.00066827796 -0.0034153133 0.03281041 0.02933566 -0.03950242
-0.013585931 -0.018334555 -0.02288888 0.04088847 0.019243522 0.017270507 0.021172613 -0.02388732
-0.0049828114 -0.0006593906 0.0060903006 0.017749997 0.01234742 -0.001849455 -0.026191344 -0.003606866
0.02742082 0.04240168 0.038299803 0.009487722 -0.01588131 0.02921803 -0.030126179 0.0007409676
-0.0055620847 0.008818452 -0.011669035 0.036459155 0.0046510864 0.009303218 -0.023266774 -0.0006091662
-0.024105612 -0.034461737 -0.00090163125 -0.00981207 0.038964037 -0.009420351 0.027854057 -0.030428447
0.02707727 0.029776705 -0.0073600314 0.04674572 0.037870616 0.01447507 0.035952874 0.03628921
0.005808519 -0.009900171 0.001274686 0.010167636 0.007958415 -0.02819111 0.021932855 0.0037162174
-0.0124946 -0.008663287 -0.011269523 -0.018615149 0.021259295 -0.01318458 0.050165243 0.0268404
0.023468234 0.0083490005 -0.0143871885 0.027045516 0.02725087 0.045097366 -0.02671564 0.010006892
0.03457085 0.025021622 0.008350135 0.040272545 0.0010811079 -0.039665088 0.021254348 0.001914744
-0.018182239 0.005535636 -0.016560262 -0.016983801 0.021551566 0.0101261465 -0.029845588 0.0056843385
0.021574793 0.016333133 -0.02156152 0.0370311 0.014259237 0.031264782 0.015117349 0.015750527
0.042631283 -0.021544803 0.04665602 -0.02408652 0.053756397 -0.0053705424 -0.016860988 0.040337723
0.024108285 0.030067451 0.013363419 0.021013282 -0.024661524 -0.015356836 0.040505268 -0.017142931
0.019760381 -0.02040119 0.04450365 0.0012058635 -0.022528268 0.01904478 0.05413538 0.00809114

bias f4 [2]
00000000: 1084 ab3c 4494 2abc
0.020936996 -0.010411326
