CartPole-v1_target_net.pth (torch, 172256 bytes, 20 tensors)

weight f4 [16, 3, 5, 5]
00000000: 20e4 bdbd 84f8 85bd 9dcd 0bbd 8d96 443d
00000010: a38b 01bd bd7f 14bc fea6 993c 25b8 9e3d
00000020: 4300 82bd 776b 77bd 4d72 45bd ceef d13d
00000030: db43 24bd 17dc d8bb 008a 553d d8af 9f39
00000040: cc51 a33d 09ad a2bc 3e8f c9bd 12c5 18bd
00000050: c68a 2a3d 902a 3e3d 0289 4bbd bc92 66bd
00000060: 5697 b83d 7814 9fbd 7505 e33d 6002 d23c
00000070: 65c5 f3bd b32b 84bc 6acf 02bc 95e8 cabb
00000080: 0ff0 3bbd eca9 f03d 6aa2 803d e9b6 4bbc
00000090: 6a3e 0b3c c7e4 89bd a56f 3c3c 8ed3 b13d
000000a0: 7478 93bb c816 9fbd 574c 8f3d e38c 513d
000000b0: 8dd4 ef3d 081c 51bd 70d9 e6bd d290 073d
000000c0: 253a 173d 0ecb b03b 1ccf cd3b 25b8 353d
000000d0: c948 efbc 56f3 c83c 22f8 78bd 76fa ef3c
000000e0: 6e73 aebd c973 90bb e032 57bc 268c 27bd
000000f0: c3aa e53d 7f32 8d3d fb89 213d 6c0a c53d
00000100: 9f5e 92bd a303 89ba b86c 823d 380c 983b
00000110: 48ba e4bc bcd2 703d d043 7ebd 8505 e3bd
00000120: c646 9fbd d90e 003d 0759 2ebd 47f6 b43c
00000130: 0210 afbd 5d1e b23d 5907 86bd 7e5c 103d
00000140: ee47 163c 1da0 a13c da77 dfbd 2d88 003e
00000150: 8f34 323d 16e4 373c e0ed ba3d defe 42bd
00000160: c25d 8d3d 84a4 b8bd c73c 03bd 00bc fb3a
00000170: 2bb8 b33d e66f 2fbd 8007 ab3d 4bef d7bc
00000180: 92e1 303d 9fbf dc3d 29ba 95bd 47c3 623d
00000190: 5402 a73d 3f9d 133c 3390 0ebd 47b5 5bbd
000001a0: 8936 c03d 9801 bcbc dcad 90bd b4e8 8a3d
000001b0: 2469 893d 6f44 fa3d 99da 4cbd 96f5 4abd
000001c0: c4b6 f53c 5c31 343d af5e e3bb b3ac f5bd
000001d0: 90f1 323c 9dfe adbd 3703 2c3c 754f 743d
000001e0: e829 f93c da02 7f3b df0b 9ebd f0f9 aabd
000001f0: 231c f33c f5d6 c13d c4f8 a73d 63ee 303d
00000200: ae48 cfbd 0aea 953d f825 f0bc f917 9f3d
00000210: be95 3b3d e367 953c fbf4 2b3c 0914 66bd
00000220: 2fc3 5d3d b493 c93d 0338 8ebd 867a 87bd
00000230: 4f8f 8f3d fa8d 2bbd 43be 68bd f7c9 3cbd
00000240: 269b b9bd 95e0 b1bd dac9 c5bd 27c5 d7bc
00000250: 6c46 5abd aa74 8a3c 17c3 b23d 5a77 09bd
00000260: 6f1e e83d 7c00 84bd cb58 9abd 838f e2bd
00000270: a210 b8bc 591c c53c f23e 803d a733 ec3c
00000280: 859f babd 4883 94bd 90b8 b7bd b16e 703d
00000290: 8126 c43d 653c 45bd 72a2 c7bc 3f4a ce3d
000002a0: fa48 7d3c 43f4 cfbd 480e ae3d a118 5cbd
000002b0: ef5e 563d cb65 c7bd 8a64 bebd 29f4 a23d
000002c0: 7ff3 d63d ca1d 83bd db90 a73c 3a7c c63d
000002d0: dc72 a6bd 3436 683d f52b 9f3c 21ac 003e
000002e0: 4e46 63bd 1168 cfbd 266d d03d f08d 713d
000002f0: 337c a13b 99da b03d 856c ad3d feb1 e33d
00000300: ac53 eebc 279c c0bd 64d5 2e3d 36be cf3d
00000310: aaf8 c23c d62c a23d e48b 9abd 95fe e43d
00000320: e0d2 923d 8a0f 30bc c90d c6bc f512 8cbd
00000330: 1736 673d 21bf c8bb d6ab 57bc e6f1 51bd
00000340: c4e4 39bc f4b0 cf3c 1ba6 7a3d 101e 66bd
00000350: fa44 30bd f31c 3b3d 85c1 8a3b 07e2 e3bd
00000360: 2310 c33d 77a8 dd3d 30f8 59bd b094 c73c
00000370: b6e4 bdbd 6402 11bc f019 d2bc 6fcb e0bd
00000380: 07ad 273d f25f d33d a581 0d3d 78cb 6bbc
00000390: 545c aa3d 552b bb3d e892 9b3d 8338 b8bd
000003a0: 3f85 953c ec17 2cbd 3dd2 923d f2bb 5d3d
000003b0: 7dc4 60bd 9309 a33d a87f 123d a8e5 273d
000003c0: 491f 60bd a9ad 92bd 2418 a73d a26d 01bd
000003d0: 929f 22bd 7542 e4bd 631c b2bd 9ea1 9c3d
000003e0: 391c 693d cdb9 2cbd b631 a33d f19d 9d3d
000003f0: 6dda 89bd f145 70bd 9e0f 703d 5b43 503c
-0.09272027 -0.06541541 -0.034131635 0.04799514 -0.03162731 -0.009063658 0.018756386 0.077499665
-0.06347706 -0.06040522 -0.04820471 0.10250817 -0.040103775 -0.0066180336 0.05213356 0.00030457857
0.07974586 -0.0198579 -0.098417744 -0.037297316 0.04163625 0.04642731 -0.049691208 -0.05629228
0.0901324 -0.07767576 0.11085025 0.025635898 -0.119028844 -0.016134119 -0.007984022 -0.0061922767
-0.045883235 0.1175116 0.06280978 -0.012433746 0.008498767 -0.06733089 0.0115012275 0.08682929
-0.004500443 -0.07768017 0.069969825 0.05115975 0.11710463 -0.051052123 -0.11271942 0.033097096
0.036920685 0.0053952998 0.006280793 0.044365067 -0.029209511 0.024530094 -0.060783513 0.029294234
-0.0851811 -0.004408334 -0.013134688 -0.04090514 0.11214211 0.06894397 0.03943823 0.096211284
-0.07146954 -0.0010453354 0.06368393 0.0046401285 -0.027920857 0.058794722 -0.06207639 -0.11085037
-0.07777171 0.03126416 -0.04256537 0.02209009 -0.08547975 0.086971976 -0.0654437 0.035244457
0.009172423 0.019729668 -0.10911532 0.12551947 0.043507155 0.0112238135 0.09127402 -0.04760634
0.069026485 -0.09015754 -0.032040384 0.0019205809 0.087753616 -0.042831324 0.0835104 -0.026359221
0.04318387 0.10778736 -0.07310898 0.055362012 0.08154741 0.009009658 -0.034805488 -0.053639676
0.09385402 -0.022949979 -0.07064411 0.06782666 0.06709507 0.12220084 -0.05001316 -0.049550615
0.029994376 0.043992385 -0.0069387774 -0.119958304 0.010921851 -0.08495829 0.010498813 0.05964609
0.03041549 0.0038911612 -0.07717108 -0.08348453 0.029676503 0.09464828 0.08201745 0.043196093
-0.101212844 0.0732003 -0.02931498 0.07768244 0.045797102 0.018238014 0.01049542 -0.05617145
0.05414122 0.09842625 -0.06944277 -0.06615166 0.07009756 -0.041883446 -0.056822073 -0.046091046
-0.09062795 -0.08685414 -0.09657641 -0.026339127 -0.053289816 0.016901333 0.08728617 -0.03356109
0.1133393 -0.06445405 -0.07536467 -0.11062529 -0.022468869 0.024061369 0.06262006 0.028833224
-0.09112457 -0.072516024 -0.089707494 0.058699314 0.095776565 -0.0481533 -0.024369452 0.10072755
0.0154592935 -0.10154011 0.08498818 -0.053734425 0.05233663 -0.09736212 -0.0929652 0.07956726
0.10495662 -0.06402166 0.020454815 0.09691663 -0.081273764 0.056692317 0.01943014 0.12565662
-0.05548697 -0.10127271 0.101770684 0.058973253 0.004928136 0.08635444 0.08467964 0.11117934
-0.029092632 -0.09404784 0.042683974 0.10143702 0.023800213 0.07918708 -0.07546213 0.1118137
0.071691275 -0.010745892 -0.024176495 -0.06839553 0.05644807 -0.0061263 -0.0131635275 -0.051256083
-0.011346046 0.025352933 0.061193567 -0.056181014 -0.04303453 0.045681905 0.004234495 -0.11127096
0.09524562 0.10823148 -0.053215206 0.024362892 -0.09272139 -0.008850668 -0.025647134 -0.10976302
0.040936496 0.103210345 0.034547467 -0.014391772 0.083183914 0.09139124 0.075963795 -0.08995154
0.018252013 -0.042015 0.07169006 0.054134317 -0.054874886 0.079608105 0.035766274 0.0409905
-0.054717336 -0.07162029 0.08158901 -0.031598695 -0.03970296 -0.11145488 -0.086968206 0.076480135
0.05691168 -0.04216938 0.07968466 0.076961406 -0.067311145 -0.05866045 0.058608644 0.012711371

bias f4 [16]
00000000: 4464 4a3c d35b f0bd 3cc2 94bc 1466 db3d
00000010: 69f3 e0bd 7664 b73d 3669 c43c f6ab afbc
00000020: 4190 363d c3e7 2dbd 95f6 873d 9c77 a03d
00000030: 3058 c33b 4dbe 9b3d e81e d9bd 8311 04bc
0.012353007 -0.11736264 -0.018159024 0.10712829 -0.10983927 0.08954708 0.02397595 -0.021444302
0.044571165 -0.042457353 0.06638829 0.07835314 0.0059614405 0.07604656 -0.10601598 -0.008060816

weight f4 [16]
00000000: 2332 7f3f bde6 7f3f 69f4 803f b892 7f3f
00000010: 31b9 813f a984 803f eefb 7d3f e80e 803f
00000020: 5b64 7e3f f87b 7d3f 415e 7f3f daf1 803f
00000030: ff8f 813f b5e5 7f3f c399 7c3f ea77 7f3f
0.9968588 0.99961454 1.0074588 0.9983325 1.0134641 1.0040485 0.9921254 1.0004549
0.9937188 0.99017286 0.99753195 1.0073807 1.0122069 0.9995988 0.9867212 0.9979235

bias f4 [16]
00000000: f4f7 ba3b a7eb 423b b18f a03b 7562 373c
00000010: caeb 893b f147 dd3b 4347 8c3b 7804 253c
00000020: fe89 273c 5d97 e9bb c663 0b3c c6db 293c
00000030: b2ac 353c de31 8cba a6c8 c3bb 7625 12bc
0.005705828 0.002974251 0.004899942 0.011192908 0.0042090164 0.006752961 0.004280956 0.010071866
0.010225771 -0.0071286396 0.008507675 0.0103673395 0.011088537 -0.0010696014 -0.005974847 -0.008920064

running_mean f4 [16]
00000000: 0e81 4a3c f75e f0bd 4cd9 94bc 2b61 db3d
00000010: 03f4 e0bd a25c b73d 3370 c43c 7bab afbc
00000020: 409a 363d 20d1 2dbd 51f1 873d 7c85 a03d
00000030: d638 c33b eac2 9b3d 2c27 d9bd 1f0f 04bc
0.012359871 -0.11736863 -0.018170021 0.10711893 -0.109840415 0.08953215 0.023979282 -0.021444073
0.044580698 -0.042435765 0.06637824 0.0783796 0.005957703 0.07605536 -0.106031746 -0.008060246

running_var f4 [16]
00000000: a8f1 e337 c6de 5138 30c1 a338 0565 0539
00000010: 850e 6938 5d30 0f39 a1f5 fd37 b6b0 d338
00000020: 5553 0a39 c933 0139 2f60 5038 c3f2 3839
00000030: a01f 9537 dbc0 e538 6669 8039 ab5a 8238
2.7173039e-05 5.0036957e-05 7.80843e-05 0.00012721501 5.556505e-05 0.0001365556 3.027433e-05 0.00010094179
0.00013191749 0.0001232169 4.9680642e-05 0.00017638043 1.777691e-05 0.00010955493 0.0002449259 6.215771e-05

weight f4 [32, 16, 5, 5]
00000000: e9f2 51bd baee 1ebd 7279 b2bc 5aff 92bb
00000010: 9101 313d 76e1 373c df42 a83c 3c7a 69bb
00000020: cf9e b33c 1459 363d d423 703a 4d3d 8fbc
00000030: 6820 a6ba fa55 533d 29bb d4bc dabd c23b
00000040: 3cbe 353d fd25 41bd 5a5c 0e3d 860b 20bd
00000050: ff00 42bd e459 20bd da18 043b c528 b63a
00000060: 5ce3 803a 4f0e 32bd b466 1fbb da39 023d
00000070: eda1 eabb 6266 fd3c 69c0 d13c a6dd 46bd
00000080: 4a3e 92bc 4921 a63c 7c17 e63c bae2 27bd
00000090: f4b9 a63c 2f01 03bd bf3a fd3c ddef 19bd
000000a0: 9ba4 69bc 7187 05bd 01ba 5bbd 2687 1a3b
000000b0: 4f8c 6b3d bc8d 6e39 fc76 c2bc 5e46 3fbc
000000c0: b51e 05bd 60e7 123d 2f3e 083d f8a3 4ebd
000000d0: 7026 ab3b 4294 eabb 99f8 f43c 1999 eabc
000000e0: 9db8 3a3d 1cdb 813c e6d4 e9bc a7b5 f53c
000000f0: bbb8 fdbc 516f d63c d191 40bb ee31 263c
00000100: 932e d93c a9f6 4ebd 9646 833c c648 2fbd
00000110: 48b9 6fbc 98c8 203c 4dea 24bd e2a5 253d
00000120: 842e a93c c2e5 b6ba fada ffbc fd88 8dbc
00000130: 63d3 b5bc d15a 4a3c 4530 4fbd 15e3 f4bb
00000140: 0c23 a93c 316c 243d 4a0b 45bd 9758 5fbd
00000150: f7bc a4bc caa3 38bb 3b7a a93c f250 b3bc
00000160: e3ae c93a fd2a 183d 123c f43c 4bdd 583c
00000170: 42d6 623c b313 32bd 7e3d d73c 7bc8 b1bc
00000180: 1af0 01bd 4b68 6ebc d719 0a3b 4707 25bd
00000190: cbe2 363c 5ae2 c33c 725d 81bc 7989 45bd
000001a0: 55a2 123d 043f 0bbc 39bf 4fbd badf 1a3d
000001b0: f3a4 bbbb c59f c43c cdaf 433c 54ca 4b3b
000001c0: 5b29 0f3c b5ea ce3c 497d d9bb e85f 96bc
000001d0: afd8 e0bc f0c0 22bd 5451 cabc 9eaf a23c
000001e0: 4952 3d3d b430 8c3c 27ab 393d 8c80 1c3d
000001f0: 0ee5 263d feb2 57bd df42 8fbc a4d3 cabb
00000200: 48d6 59bd f5ab c1bc 50a6 333c ba4a 223d
00000210: 6873 86bc ce1c 173d b691 043d c7f9 2fbd
00000220: 7249 123c 3275 843c 5086 22bc ba84 583d
00000230: 1133 393d 82a0 12bd 9c59 4fbd d065 4cbc
00000240: 2b7a be3c 469b 243d 6340 e2bc b88c 173c
00000250: 3305 403d bc1e 7f3c 2fdd c43b 5ad4 933c
00000260: 5c98 69bc 5e7f 32bd 9ace c63b bd8d 963c
00000270: 736a 313d dc8d 363d aba8 07bd c747 113d
00000280: 96e6 313d bd81 aabc 0377 a13c 579f c83c
00000290: e9f9 94bc f090 9a3c a7b0 8c3c 38ab 44bd
000002a0: d231 1f3d 206c b63c c0a1 9d3c dfaa f1bb
000002b0: c022 d3bc 1dbe 493d 598c 78bb 66af f6bc
000002c0: c270 afbc 228f a23c 18a0 30bd 4997 59bc
000002d0: 5a9c e93c 6059 4abb 99f4 d43c e58a 1abd
000002e0: 3980 a23b 9bf5 0039 6187 46bd 32c4 d43c
000002f0: 55aa 72bc 3e45 453d aaa6 b23c bfaf 4abd
00000300: 8fcb c0bc 51c4 b8bc 90ca 79bb 1eaf 8b3c
00000310: fd28 eebc 0fb6 ffbb 6e5c 8b39 0794 19bd
00000320: 2621 dabb 135b 143c f747 2cbd fe9d 1abd
00000330: ef8f 9eba f201 e6bc b361 08bd a54d d03b
00000340: 1ce8 48bd 8147 0d3d 0096 be3c 04b5 d23b
00000350: 0ae6 2fbd 8b9a 183d d956 febb a257 b1bb
00000360: 554a c4bb 62a2 e5bc d0dd 03bc 5432 46bb
00000370: 175b d33c 6389 ffbb 0421 5c3c 3852 e63c
00000380: aefb 3fbd 681b 87bc 6ee6 1b3d fa59 adbc
00000390: c04b 4dbd c03f d23b 0c3c 023d 07c9 3b3d
000003a0: ebd3 8fbb 5345 423c e7e4 d43c 31c4 bb3c
000003b0: 52db 2cbd 0c0f 283c 71a7 56bd 4a31 48bc
000003c0: cf09 8bbc 1836 873c 1903 b23b 1567 973c
000003d0: 96c5 ccbc 60b8 cdbc 877e 5cba 7599 ddbb
000003e0: 2ff1 96bb 9a69 963c 3a22 72bb 6e9e 693b
000003f0: b892 393d f8ce 5cbc 970b ec3c 265a 973b
-0.051257048 -0.038801886 -0.021786425 -0.0044860067 0.043214384 0.011223188 0.0205397 -0.0035625836
0.021926312 0.044518545 0.0009160612 -0.017485285 -0.0012674453 0.051595666 -0.025968151 0.005943042
0.044370875 -0.04715537 0.034756042 -0.03907349 -0.04736423 -0.039148226 0.0020156414 0.0013897648
0.0009833383 -0.043470677 -0.002432269 0.031793453 -0.0071604163 0.030932609 0.025604444 -0.048551224
-0.017851967 0.020279543 0.02808737 -0.040987708 0.020352341 -0.03198355 0.030911801 -0.037582267
-0.014260436 -0.03259987 -0.053644184 0.002357909 0.057506856 0.00022750249 -0.023738377 -0.011674492
-0.032499988 0.035865188 0.033262428 -0.05044934 0.005223088 -0.007158787 0.029903697 -0.028637456
0.045586217 0.01585155 -0.0285439 0.029993845 -0.030971875 0.026176127 -0.0029383788 0.01014374
0.026511466 -0.050528202 0.016024869 -0.04279401 -0.014631577 0.00981345 -0.04026251 0.0404414
0.020652063 -0.0013953971 -0.031232346 -0.017277235 -0.022195524 0.012350754 -0.050583143 -0.0074733594
0.020646594 0.040142242 -0.04810647 -0.054527845 -0.020109637 -0.0028173798 0.020688167 -0.021889184
0.0015387203 0.03715037 0.0298138 0.013236354 0.013845028 -0.043475818 0.026274439 -0.021702042
-0.03172312 -0.014551233 0.002107253 -0.040290143 0.01116247 0.023911644 -0.015791629 -0.048226807
0.035799343 -0.008498911 -0.050719474 0.03781102 -0.0057264506 0.024001965 0.01194377 0.0031095939
0.008737887 0.025258401 -0.0066372496 -0.018356279 -0.027447073 -0.03973478 -0.024696983 0.019859131
0.04622105 0.017113067 0.04532924 0.03820853 0.040745787 -0.052660935 -0.017487941 -0.0061897803
-0.05318287 -0.023641566 0.010964945 0.039622046 -0.016412452 0.036892705 0.032365523 -0.042962816
0.008928644 0.016169164 -0.009919718 0.052860953 0.045214716 -0.035797603 -0.050622568 -0.012475446
0.023251614 0.040187143 -0.027618593 0.009249859 0.04687996 0.0155712925 0.0060078125 0.018045593
-0.014257517 -0.043578498 0.0060671093 0.018378133 0.04331441 0.04456888 -0.03311984 0.035468843
0.043432795 -0.020813817 0.01971007 0.024490042 -0.018185573 0.01886794 0.017174078 -0.04801485
0.03886587 0.022268355 0.019242167 -0.0073751057 -0.025773406 0.04925357 -0.003792545 -0.030112933
-0.021416072 0.019843642 -0.043121427 -0.013280698 0.028516937 -0.0030876026 0.02599554 -0.037730116
0.004959133 0.00012298526 -0.04846895 0.02597246 -0.014811118 0.048161738 0.021807987 -0.04948401
-0.023534564 -0.022554548 -0.0038115121 0.017051276 -0.02907228 -0.0078036855 0.00026581011 -0.037494686
-0.0066567836 0.009054917 -0.04206082 -0.03774833 -0.0012097339 -0.0280771 -0.0332963 0.006356912
-0.04904948 0.03449202 0.023264885 0.00643027 -0.04294399 0.03725676 -0.007761818 -0.005412058
-0.0059903064 -0.028031532 -0.00804849 -0.00302424 0.025800271 -0.00779836 0.013435606 0.028115377
-0.04687088 -0.01649256 0.03806155 -0.021161068 -0.05012107 0.006416291 0.031795546 0.04584601
-0.0043892763 0.0118573485 0.025988055 0.0229207 -0.042201348 0.010257494 -0.05240578 -0.012218783
-0.01697245 0.016505286 0.005432498 0.01848177 -0.02499656 -0.02511233 -0.0008411188 -0.0067626783
-0.004606388 0.018360902 -0.003694667 0.003564741 0.045305938 -0.01347708 0.02881412 0.004618901

bias f4 [32]
00000000: bf5f 11bd 6da9 453d eca2 6cbc 887f 343d
00000010: c136 ea3b 2681 603c 38e3 fdbc a8a6 b9bb
00000020: 3a53 eb3c 74ce 7f3c 794f 093d d34d 64bd
00000030: c234 d73c 6665 47bc ea10 c1bc 51d3 843c
00000040: 748c 46bd c212 e8bb 10fa 57bd 2f74 49bd
00000050: 7de7 33bd 9342 d13c ab6f bebc 64d1 3bbc
00000060: 1d0b 02bd 6327 2bbd c293 cd3c a992 64bc
00000070: 2003 203d 0751 593d 41f3 6339 f802 eebc
-0.0354917 0.04825728 -0.0144431405 0.044066936 0.0071476405 0.013702666 -0.030992135 -0.005665619
0.028726209 0.015613187 0.033523057 -0.05573828 0.026270274 -0.012170171 -0.023567636 0.016214045
-0.04847379 -0.007082314 -0.052728713 -0.049183067 -0.043921936 0.02554444 -0.023246607 -0.011463497
-0.03174888 -0.04178561 0.02509487 -0.013950982 0.03906548 0.05305579 0.00021739026 -0.02905415

weight f4 [32]
00000000: 844c 7f3f 44d8 7f3f 5e8d 7f3f abc1 803f
00000010: b53f 7d3f c044 803f 6b3b 813f 498b 803f
00000020: 0eb0 803f 9806 7f3f a312 803f f9d9 7d3f
00000030: 14f2 7f3f 6a23 7f3f c1d9 7d3f de0e 7f3f
00000040: d548 803f 52ce 7e3f b4d4 7f3f d98c 7e3f
00000050: f2d9 803f 7f1e 823f d9af 7f3f 9d96 7f3f
00000060: 2b8d 7d3f 57c8 803f 00fe 7f3f 628b 803f
00000070: 4376 803f c019 803f 164e 803f e1bb 7e3f
0.9972613 0.9993937 0.99825084 1.0059103 0.98925334 1.0020981 1.0096258 1.0042506
1.0053728 0.99619436 1.0005687 0.99160725 0.99978757 0.9966341 0.9916039 0.9963206
1.0022227 0.9953357 0.99933934 0.99433666 1.0066512 1.0165557 0.998777 0.9983919
0.9904353 1.0061139 0.9999695 1.0042536 1.0036091 1.0007858 1.002383 0.9950543

bias f4 [32]
00000000: 88cb 603a 6de7 3c3c 3e3b 8e3a 56ad 1dbc
00000010: fd93 083a fd68 1cbb 643e 0cbc 2c91 373b
00000020: f91e 583c 36a4 853c d050 a53b 9b90 82bb
00000030: 0eed 653c eca2 d1bb c4a0 473a 6f6f 473b
00000040: 7a0e 90ba f5d8 a03c d71d 783c ad48 8c3c
00000050: 6e27 003c 77bf 8e3c 9f10 9e3b bbe8 2e3c
00000060: e312 3a3c 3a9b 1c3c 6268 2d3b 9491 08bc
00000070: 9df6 c9bb f700 113b dee9 b73c e496 84bb
0.00085752504 0.011529786 0.0010851396 -0.009623846 0.000521004 -0.0023866289 -0.008559797 0.0028010113
0.013190978 0.016313653 0.005045034 -0.0039845235 0.014033569 -0.0063975956 0.00076152035 0.003043141
-0.0010990642 0.019634703 0.015143833 0.017124498 0.007821901 0.017425282 0.0048237587 0.010675604
0.011357042 0.009558493 0.0026459922 -0.00833549 -0.006163432 0.002212582 0.022450384 -0.004046308

running_mean f4 [32]
00000000: 065d f7bd f40f 583d a952 273d d438 a63d
00000010: 869f 84bd 2356 a0bc d55f 1b3e 1b08 e839
00000020: 706e 1c3d 4caf 28bd 59cd 533d 5215 cdbd
00000030: 3bd6 94be 2b72 94bd fcb9 8bbe 61c6 c4bc
00000040: af45 d1bd e4a9 70be fec3 94bd 4fa6 09be
00000050: 8538 85bd 7254 89be f3ce 7fbc 6a5e 85be
00000060: 3506 9ebe 1827 1d3e 66fa 6bbe 7a70 783e
00000070: cd6e 083e 6a56 f0bc 9827 d5bd 79f1 23be
-0.1207829 0.05274959 0.040850315 0.08116308 -0.06475739 -0.019572323 0.15173276 0.00044256527
0.03819126 -0.0411828 0.051709507 -0.10013832 -0.29069695 -0.07248338 -0.27290332 -0.024020376
-0.10218369 -0.23502308 -0.07263945 -0.13442348 -0.06504921 -0.2682224 -0.015613305 -0.26048595
-0.3086411 0.15346944 -0.23044738 0.24261656 0.13323517 -0.02933808 -0.104079425 -0.16010083

running_var f4 [32]
00000000: 2ef8 453e cced 183e d75b 373e a2e4 1e3e
00000010: b03b 4c3e 5686 1c3e d220 e23e 6829 773e
00000020: d1e7 093e 4330 603e 2f82 203e d282 123e
00000030: f4f9 4f3f 5a7c 2a3e af3a 3a3f 49e5 e63d
00000040: d1f3 113e 428a 083f ac54 d23d 2c02 873e
00000050: 74f5 f53d 5082 2d3f fc37 903e e6c2 253f
00000060: fcb7 2f3f c95e ed3e 650f 253f c06c 263f
00000070: ab75 513e 42ed 493e b76f 5b3e 7534 9c3e
0.19332954 0.14934462 0.17906128 0.15516904 0.19944644 0.1528562 0.44165665 0.24136889
0.13467337 0.2189341 0.15674661 0.14307716 0.81240773 0.16648999 0.72745794 0.112742014
0.14253165 0.53335965 0.10270056 0.26368845 0.12009707 0.67776966 0.28167713 0.64750516
0.6864011 0.46361378 0.64476615 0.6500969 0.20455043 0.19719413 0.21429335 0.30508772

weight f4 [32, 32, 5, 5]
00000000: 7060 09bd 5fa9 00bc c292 6f3b 407d 29bc
00000010: 32ab 1d3d 35bb 193d b9cf 94bc 3138 08bd
00000020: 49be 153c e358 82bc 47fa 2a3c 20b5 153d
00000030: 0f5b 903c 6a0e 14bd 230a bbbc de57 ec3b
00000040: a106 a7bb f000 07bd 834a b13c 0e43 cdbc
00000050: 837f b63b 5e98 80bc 1b83 64ba bedc bfbb
00000060: d678 a4bc 90ef 2bba c9bf be3c d16b a3bc
00000070: 7a88 6d3c 45e7 0e3d 7e41 00bc 4b58 70bb
00000080: 4438 bdbc 8893 6a3c 4a0e c3ba 95cf ce3c
00000090: 5f28 c93c 694f 07bd 2334 a0bc 67e9 9dbc
000000a0: 642f 983c b1ad febb eacb 3138 9d7a adbc
000000b0: eb29 bd3b 94af 023c cb9c 323c b069 0bbd
000000c0: 36e3 56bc 6930 003c 35a7 cabc bced a2bc
000000d0: cf68 ca3c 95f8 0cbc 4133 863c d6bc f338
000000e0: a4f5 ff3c 1846 3fbb fd62 8b3c c0f8 1f3d
000000f0: 27df 98bc 3539 87bb 2b17 183d 743c dd3b
00000100: aee6 30ba ec1f 4abc ae25 f3bc 0aaa ccba
00000110: 7132 58bc e13c 98bc 2919 cbbc 33cb 0cbc
00000120: 9262 083d 1e58 b23c 32c1 81bc 0274 53bc
00000130: 2f27 2abc d62d d23c 2da1 18bd a7e5 043d
00000140: c30a 71bc c126 d6bc e99a 1b3b 294c 0d3d
00000150: 4899 1ebd dd6c 523b aac6 ef3c ce7b 1c3b
00000160: 9b65 3a3c bab3 1d3d 923f 67bc 12f6 c63c
00000170: 0880 6a3c cab4 dfbc 7f83 ea3c 12a8 bdbc
00000180: b3f2 c63c c0b7 903b d946 86bc 6019 4abc
00000190: 3ddc 9f3c 8063 5e3c 4bcd af3c ac6b e9bb
000001a0: 4085 143d b6fa 48bc 0d55 46bc 3da2 e3bc
000001b0: 4ed8 0e3a b36a c83b e6c0 b53b cdc7 2fbc
000001c0: 04a2 403c 2321 193d 7ad4 88bc 07c4 c63b
000001d0: 6a75 953c 6306 8fbc cb8d 94bc c36b 0b3d
000001e0: b7fa 16bc 8470 9abc 20b2 ee3c 9645 a53b
000001f0: d4ff 3a3c 6e38 aa3c ee9d f53c 91ea febc
00000200: 3a0b 99bc 9008 1bbd 4b67 0bbd 468d 15bc
00000210: 28cf dfbc ad46 043d 5668 2e3c 5b00 c8ba
00000220: 40cf cc3c 4e7f 79bc 4742 18bb bea1 0ebc
00000230: 34be b23c 7e98 78bc fa46 f33c d64e 6d3c
00000240: 0ff6 273c 9fcf ca3b b9b7 e5bc 1d1c 2abc
00000250: 6433 71bc 2d2b 09bd fe06 80bb 0d8c ee3c
00000260: 71fd 723c 6435 b13c b694 d13c 6018 983c
00000270: 303b 3b3c 602e 003d d3c8 213d 17fa 323c
00000280: 4919 643c de0a a8bc 97ac e53c 2d1c 333c
00000290: 6377 da3c ab20 393c e1a5 98bc b76e ae3c
000002a0: 2330 dc3c b4be 093d 64a4 f73c 7f09 ce3c
000002b0: ef35 0f3d 61cb 013c a36d 183d e9cd cebb
000002c0: a358 aebc 93dc 78bc 93f6 9ebc 01f2 1e3c
000002d0: 8c3b ba3c 5091 cb3c d3b5 10bd 31f0 9fbc
000002e0: eced 3cbb bfbf c83c 7667 e43c 7743 2abd
000002f0: e597 e0bc f3f8 c73c ec2f 9dbc 1dac 90bc
00000300: ea17 083d 7f67 903c 781d a6bc 3e2b 333b
00000310: aa1f 93bc a7ed cb3c 2a0b 973c 5461 f63c
00000320: b552 d43b 0e17 c83c 5f4b bf3b 693f 4e3c
00000330: b53b a43c 5cb8 8bbc 7704 083b b497 c73b
00000340: 6b59 d4bc 838b 03bc c594 e03b 24f3 73ba
00000350: 3548 cc3c 8df3 44bc bda9 9e3c 7b50 2cbd
00000360: dd14 a83b 578c 0abd af23 f0bc faed a83c
00000370: a1ce c73c 4c8a cb3c 4a95 24bc 550b 26bd
00000380: 3cd5 bdbc 820d 0fbd 0a99 eabb 0f73 3d3d
00000390: e025 d2bb 8d15 63bc 0ed0 b13c 0c45 6a3c
000003a0: 343f e1bc 371d 6dbc 0e39 c3bc b307 a7bc
000003b0: d565 e8bc 57fa 1d3c 8eb9 873a 8444 4539
000003c0: cf9b 503c 6d89 f23c 447b bd3c caa3 9a3c
000003d0: 586c 74bc 8f2b fabc 8345 e23c 78f8 59bb
000003e0: 5b02 b7bc ad70 0b3c 3087 363c de3c dcbc
000003f0: cb55 32bc 984a 533c 5e11 fab9 a3f0 923b
-0.033539236 -0.007852881 0.003655598 -0.010344803 0.038493343 0.03753205 -0.018165456 -0.033256713
0.009139606 -0.015911525 0.010435647 0.036549687 0.017621545 -0.03614656 -0.022831982 0.007212623
-0.005097226 -0.03295988 0.021641975 -0.025056388 0.0055694 -0.015697654 -0.0008717046 -0.005855172
-0.02007715 -0.000655883 0.02328481 -0.019948872 0.014497871 0.034888525 -0.007828115 -0.003667372
-0.023098119 0.014317401 -0.0014881578 0.025245467 0.024555383 -0.033034716 -0.01955611 -0.019276334
0.018577285 -0.0077721705 4.239e-05 -0.02117663 0.0057728193 0.007976431 0.01090164 -0.03403634
-0.013115695 0.007824042 -0.024737934 -0.019888751 0.02470818 -0.008604188 0.016381862 0.000116223164
0.03124506 -0.0029186066 0.017014975 0.039055586 -0.018661095 -0.0041266927 0.03713147 0.0067515913
-0.0006748241 -0.012336712 -0.029681053 -0.001561464 -0.01319562 -0.018583717 -0.02479227 -0.008593368
0.03329713 0.021770533 -0.015839193 -0.012906076 -0.010385319 0.025656622 -0.037263084 0.032445576
-0.014712038 -0.026141526 0.0023743457 0.03449646 -0.0387204 0.0032108345 0.029269535 0.0023877504
0.011376764 0.03850148 -0.014114277 0.024287257 0.014312752 -0.027307887 0.028627155 -0.023151431
0.02428565 0.004416436 -0.016391205 -0.012335151 0.019514197 0.013573527 0.021460196 -0.007123431
0.03625989 -0.012266805 -0.012105239 -0.027787322 0.0005449102 0.006116235 0.005546677 -0.010728789
0.011757378 0.037385117 -0.01670288 0.0060658487 0.018244464 -0.0174591 -0.018134018 0.034038316
-0.0092150485 -0.01885248 0.029137671 0.0050436957 0.011413533 0.02077886 0.029982533 -0.03111771
-0.018682111 -0.037849963 -0.034034055 -0.0091279205 -0.02732046 0.032293964 0.010644993 -0.0015258895
0.025001168 -0.015228106 -0.0023232864 -0.0087055545 0.021819212 -0.015173076 0.02969693 0.014484128
0.010251536 0.006189301 -0.028041707 -0.010382679 -0.014721725 -0.03348844 -0.0039070835 0.029119516
0.014830933 0.021631904 0.025583606 0.01856631 0.011427686 0.031294227 0.03949816 0.010923884
0.013922044 -0.020512994 0.028036399 0.010932011 0.026668256 0.011299293 -0.018633785 0.021293027
0.026878422 0.033629134 0.030229755 0.025151012 0.034963544 0.0079220245 0.037213933 -0.0063111675
-0.0212825 -0.015189308 -0.019404685 0.009701253 0.022733472 0.024849564 -0.03532965 -0.019523712
-0.0028828336 0.024505494 0.027881365 -0.041568246 -0.027416179 0.0244107 -0.01918789 -0.017660195
0.03322593 0.017627476 -0.020277724 0.0027339007 -0.017959435 0.024893595 0.01843794 0.030075707
0.006479586 0.024425056 0.0058378424 0.01258836 0.020048002 -0.017055683 0.0020754614 0.0060910825
-0.025921544 -0.008028868 0.006853672 -0.0009305945 0.024936775 -0.012020958 0.019368047 -0.04206894
0.00512944 -0.033825245 -0.02931389 0.020621289 0.02439052 0.024846219 -0.010045359 -0.04053815
-0.023172967 -0.03492499 -0.007159357 0.046252307 -0.0064132065 -0.013860119 0.021705654 0.014298689
-0.027495958 -0.014472297 -0.023830917 -0.020389413 -0.02836887 0.009642205 0.0010354982 0.00018812908
0.01273246 0.029606545 0.023130067 0.018876929 -0.014918409 -0.030538348 0.027621036 -0.0033259671
-0.02233999 0.008510751 0.01114063 -0.026884492 -0.010884712 0.0128962025 -0.00047696655 0.0044842525

bias f4 [32]
00000000: eea0 723c 1fad f43c 9219 09bd 5d5b f73b
00000010: d038 02bd 1d72 8ebc a562 073d cfe1 ea3b
00000020: 3220 e3bc 72b4 6cba a3da 473c e07f a23c
00000030: e85c d6bb 79ce 0b3c 6b9d 0d3d bfa9 ba3c
00000040: 6b8a 98bc 3047 483c 7f2f 503a a705 013d
00000050: fa2e 053c 5923 a4bc 1320 23bd 3fe5 0fba
00000060: 7d2f c8bc a8b9 953b 20a2 1cbd 02f0 003d
00000070: e7ae 8e3c fd09 0b3c d7a9 2e3b a2e2 c1ba
0.014808876 0.029867707 -0.03347165 0.007548733 -0.031792462 -0.017388398 0.03305306 0.0071680318
-0.027725313 -0.0009029574 0.012198123 0.019836366 -0.006541837 0.008533114 0.034573954 0.02278602
-0.01862069 0.012224004 0.0007941648 0.03149953 0.008128876 -0.020036386 -0.03982551 -0.00054891774
-0.024436707 0.004569251 -0.038240552 0.03147889 0.017417384 0.008486268 0.0026651525 -0.0014792273

weight f4 [32]
00000000: b899 7c3f 3961 7f3f eb03 7f3f e31b 7e3f
00000010: 885f 803f 8d4e 7c3f 4085 7e3f 5651 7d3f
00000020: 8416 803f fc77 7f3f c43b 7f3f a515 813f
00000030: 5d88 7e3f b1c6 7f3f 1d58 7f3f 84ca 7d3f
00000040: d31c 813f 9396 7d3f 7811 7e3f 9218 7e3f
00000050: 2509 7f3f a2bd 803f 6036 7e3f 25c9 7e3f
00000060: 20b9 7f3f f20b 803f d9f5 7d3f 2f65 7d3f
00000070: 7c56 7d3f 7a8e 803f 0c06 7d3f f2d7 7d3f
0.98672056 0.99757725 0.99615353 0.992613 1.0029154 0.9855736 0.99422073 0.98952234
1.0006871 0.99792457 0.9970057 1.008473 0.99426824 0.99912554 0.99743825 0.9913714
1.0086921 0.99057883 0.99245405 0.9925624 0.9962333 1.0057871 0.9930172 0.9952567
0.99891853 1.0003645 0.9920326 0.9898252 0.9896009 1.004348 0.9883735 0.9915763

bias f4 [32]
00000000: c41b 28bc 494c 06bb 087b d33b 1112 803b
00000010: bddd 313b bd1f 83bc ff9c 983b 6464 b4bb
00000020: 1e98 173c 1d13 463b a9dc 073c 48bd 323c
00000030: 5527 b03b 7284 8d3b 373a 913b 261e 1bbc
00000040: 6edb 163c 01db e3bb c1ba 0cbc 9414 41bc
00000050: 8e58 14ba d3eb 243c 4cb2 0abc 7b7a 1abc
00000060: 66c4 9b3b f738 b03b ec40 e7bb 5e30 cabb
00000070: b813 08bb 219f 313c 089b f2bb 2060 00bc
-0.010260526 -0.0020492247 0.0064538755 0.0039084037 0.0027140223 -0.016006345 0.0046573873 -0.0055051316
0.009252576 0.0030223795 0.008292356 0.010909386 0.0053757825 0.004318767 0.0044319886 -0.009467637
0.00920759 -0.0069535975 -0.0085894475 -0.011784691 -0.00056589476 0.0100659905 -0.008465361 -0.009428616
0.004753637 0.0053778845 -0.0070573 -0.0061703166 -0.0020763706 0.010841162 -0.007403735 -0.007835418

running_mean f4 [32]
00000000: 3b0d 523e 206f debe 1379 71bf d726 aabe
00000010: a187 78bf 619e ddbd 4818 47bf 71ae c3be
00000020: 8655 46bf 0043 a9be 027f 88be ecc7 a2bf
00000030: d72a 0bbf 7d18 0bbf bfa1 24bf 2d5e 02bf
00000040: bf29 6cbf 2a9a d4be 0076 233f 0253 ccbe
00000050: a293 53bf a72c bdbf 0e10 24be 6652 3a3e
00000060: 4fa4 16bf ac1e 36bf ff3a e03d 6e74 38bf
00000070: 1648 73be 0f9f 99bf 5c09 d0be 5522 bd3d
0.2051286 -0.43444157 -0.9432537 -0.33232757 -0.97081953 -0.10821224 -0.77771425 -0.38219026
-0.7747425 -0.3305893 -0.266594 -1.2717261 -0.54362243 -0.5433424 -0.64309305 -0.5092495
-0.922512 -0.41523868 0.6385193 -0.3990708 -0.82647145 -1.4779252 -0.1602175 0.18195495
-0.58844465 -0.7114055 0.109487526 -0.7205266 -0.23757967 -1.2001666 -0.4063214 0.09235064

running_var f4 [32]
00000000: ffc3 fd3e 0060 ba3e 393c 0e40 120d e43e
00000010: 0920 663f bd9e 713e 56e6 8d3f 574d 8f3e
00000020: 24ee e13f 87e7 793f 2667 633f a98e 9d3f
00000030: 42d0 e13f 529e 323f 01b0 323f 87e5 5e3f
00000040: 8df4 c03f e079 b53e 9466 333f 639d fc3e
00000050: 2b48 9f3f 9c5c 0f40 0ddf 013f 6cc4 883e
00000060: a7bb 523f 6b92 fb3f 79ad 783f 0080 d73e
00000070: 128a 813f 9c9b 0a40 9286 b53f 9002 1c3f
0.49563596 0.36401367 2.2224257 0.44541222 0.8989263 0.2359571 1.1085918 0.27988693
1.76508 0.9761891 0.8882927 1.2309161 1.764168 0.6977283 0.6979981 0.8706898
1.5074631 0.35444546 0.70078397 0.49338827 1.2443899 2.2400274 0.50730973 0.26712358
0.82317585 1.9654058 0.971397 0.42089844 1.0120261 2.1657476 1.4181693 0.6094141

weight f4 [2, 512]
00000000: a316 59bc de0c 283d a0ce 053d 431f 793b
00000010: 2328 a4bb ba22 12bc 5a6c 52bb 201a d3bb
00000020: b7b1 8dbc 1c35 93bc ee79 a63c c489 163c
00000030: 7d31 cdbc 7a0a a9bc 4157 8dbc 6de0 043d
00000040: c063 16bd 1271 7abc 7f38 e7bc 70a5 903c
00000050: eea7 1abd 916b 923c 012d a53c d6eb c93c
00000060: 7cc0 8ebb df97 9b3c a88d c93c d96c c8bc
00000070: fb7e 2c3d d676 263d 8030 153d d3f3 0a3d
00000080: f005 003d cc8d 213d 778e 563c 5705 60bc
00000090: 981d 9dbb 8a56 3b3c 8065 8f3b b4d3 af3c
000000a0: 7ad3 d3bc 4023 733c ef52 9e3c d611 ed3c
000000b0: d00e a13b 3245 0dbd 9814 05bc c018 f73c
000000c0: 214a d0bc c1d9 11bc ec83 6bbc 8a2d 073d
000000d0: 7b9f d13c 4f9f 5fbc 4e75 1c3d 25f1 08bd
000000e0: b19b c5bc c90f d9bc 1f92 aebb 850b d7bc
000000f0: ef07 ea3c a7d5 023d 9014 2a3d c22c 163d
00000100: d493 053d 2993 12bd aecf 5f3c ab94 b4bc
00000110: d95c 373d fcbb 4d3d 33a3 b8bc ccb4 ab3c
00000120: 63dd 9fbb 9339 383d 1617 59bc 4b6d f2bc
00000130: f639 a03c d9c9 063d 014b 073d 9216 433c
00000140: 5ec8 28bc 1559 1dbd eb3b ee3b 87bd 133d
00000150: f432 e0bc 4570 643c fe39 5cbc 87f0 3bbd
00000160: 36e4 9e3c f28b b63c e670 1bbd cb90 ecbb
00000170: 8359 87bc ba5a ec3c 1602 313c 7e2c 823b
00000180: 6b96 283d 81b8 d4bc 5fac 9d3c 893d 013d
00000190: ea8c 45bc b14f d53c 184e 25bc a392 09bc
000001a0: cdc5 263d 7c18 ee3a 181c 2b3d 355e 03bd
000001b0: b005 72bc 5da5 a2bc d615 a9bc e3aa 423d
000001c0: 2ea5 09bd 4b2d d8bc efd7 aa3c 645d 0a3d
000001d0: e9cf 603b 2cb2 fcbc b53e 783b 8519 f2bc
000001e0: 40d0 173d 4537 42bc 5846 163d daad ba3c
000001f0: de03 a0bc 761c ffbb 8825 b63c 6970 4f3c
00000200: 6e27 0c3d 48f1 2aba b24b 0abc 06fb 9d39
00000210: 23db e6bb 860f e73c 2443 be3c 76e2 40bd
00000220: 2276 adbc ba5c d4bc 7754 dbbc eac3 203d
00000230: a1ac e03b e051 503c fcb1 6c3c dcec 00bd
00000240: 0ba5 35bc 9a9e ddbb c945 1c3b 6cd8 ac3c
00000250: fed2 b13c 3de1 14bb 840a e9bc e919 1fbc
00000260: d0a0 ae3c f8ac 143d d0d7 1b3d 2126 713c
00000270: 8450 35bc daee f03c aa70 08bd 8bbb afbb
00000280: a795 47bc c01a 103b 280e 95bc 4108 0a3d
00000290: 9899 b13b ef85 0e3c fbd0 dbbc 37df ecbb
000002a0: 6ab3 fbbc e344 28bd 201e e3bb bfae a3bc
000002b0: 5757 273d 2f9a 19bc 6d36 be3c acbf 17bd
000002c0: de45 a73c fe62 bd3c 53ae 86bc ad0c 293d
000002d0: 8837 0b3d bb9f 2e3c f8db f03c bcbc f23c
000002e0: aebd 5eba 70a5 87bc 199a febb 8101 713b
000002f0: 9269 163b 0e1e 09bd 2fb9 663c 6bce 40bb
00000300: 0b94 9dbc 6362 7cbc d8f4 a4bc 0346 b4bc
00000310: 90b6 a33c 9f3b 88bc cdaf 353d 71a7 a43c
00000320: 7e07 893c 82c2 d23a d94e babc 8508 bb3c
00000330: 72da be3c 7036 2c3d 7e91 04bd 1108 563b
00000340: 19d6 f23c e69b a43c 6f74 c23b 1e3a 1e3d
00000350: 6c9c 6c3b 340d 14bd 7558 ac3c e375 45bb
00000360: 2a51 bdbc 715a 1f3a 7232 99bc 5dce 9abc
00000370: 064f a03c bdb0 6c3c 7f3e 0fbd b255 463a
00000380: 1610 7c3c fc2e 263c 7b9e f8bc e508 023d
00000390: 6669 d73b 9d2f cb3c 1cc8 253c 60a3 1c3c
000003a0: 5b43 153d 4e34 e3bc 5669 1e3d 17d7 fabc
000003b0: 54de 323d 3960 45bc 16fc c9bc 62de 0b3d
000003c0: a847 8f3c ef18 c03c 5c1c d03b 432d 613c
000003d0: 7653 eabc 4ff2 a3bc c0e7 0c3d 6aa6 c2bc
000003e0: e052 573c 7a57 ddbc 6cf2 1d3d e413 bebb
000003f0: d4f8 dbbc 7632 673c d1f6 483d 2614 c13a
-0.013250026 0.041027896 0.032667756 0.0038013018 -0.0050096675 -0.008919412 -0.003210804 -0.0064423233
-0.017296655 -0.01796966 0.020321812 0.009188119 -0.025048012 -0.020634878 -0.01725352 0.03244059
-0.036716223 -0.015285747 -0.028225182 0.017657012 -0.037757806 0.017873557 0.020163061 0.024648588
-0.004356442 0.018993316 0.02460368 -0.024465965 0.042113286 0.040640675 0.036423206 0.033923935
0.031255662 0.03944187 0.01309549 -0.013673148 -0.0047947876 0.011434207 0.0043761134 0.021463253
-0.025857676 0.014839947 0.019326655 0.028939169 0.004915096 -0.034489818 -0.008122586 0.030163169
-0.025425972 -0.008902014 -0.014374714 0.033002414 0.025588742 -0.013648822 0.038197808 -0.0334331
-0.024122091 -0.026496785 -0.0053274776 -0.02625061 0.028568236 0.031942036 0.041523516 0.036663778
0.032611683 -0.035784874 0.013660355 -0.022043547 0.04476628 0.050228104 -0.022538757 0.020960234
-0.0048786863 0.044976782 -0.013250133 -0.02959313 0.019558888 0.03290734 0.033030514 0.011907237
-0.0103016775 -0.038415033 0.0072703264 0.03606942 -0.027368046 0.013942783 -0.013441561 -0.04588368
0.019395929 0.022283528 -0.037949465 -0.007219409 -0.016522175 0.028851856 0.01080372 0.003972589
0.041159075 -0.025966885 0.019247232 0.031552825 -0.012057522 0.026038976 -0.01008942 -0.008396777
0.04071598 0.0018165256 0.04177484 -0.032072265 -0.014771864 -0.019854242 -0.020640295 0.04752625
-0.033604793 -0.026388785 0.020854918 0.03378047 0.0034303612 -0.030846678 0.0037879173 -0.029553184
0.037063837 -0.011853998 0.03668818 0.022787977 -0.019533094 -0.007785375 0.022234693 0.012661078
0.03421729 -0.0006520939 -0.008440899 0.000301324 -0.007045166 0.028205644 0.023225375 -0.04709097
-0.021174494 -0.025923122 -0.026773674 0.03924934 0.0068565165 0.012714833 0.014446732 -0.031475887
-0.011086713 -0.0067632915 0.0023845306 0.021099292 0.021707054 -0.002271726 -0.028447397 -0.009710767
0.021316916 0.03629777 0.03804761 0.014718563 -0.01106656 0.029410768 -0.03331057 -0.005362933
-0.012181676 0.00219886 -0.018195227 0.033699278 0.005419921 0.008698924 -0.026833048 -0.0072287577
-0.0307252 -0.04108132 -0.0069310814 -0.019980786 0.04085478 -0.009375139 0.023219312 -0.037048027
0.020419057 0.023118492 -0.016440546 0.041271854 0.033988506 0.0106582 0.029401764 0.029631011
-0.00084968924 -0.016558379 -0.0077698347 0.0036774578 0.0022951108 -0.033475928 0.014082237 -0.002941991
-0.019235631 -0.015404317 -0.020136282 -0.02200604 0.019984514 -0.016629992 0.04435711 0.020099374
0.016727205 0.0016079696 -0.022742676 0.02283121 0.023297522 0.042044103 -0.032365315 0.0032658617
0.029643105 0.02009387 0.00593429 0.038629644 0.0036103977 -0.036145404 0.021038273 -0.003013008
-0.023109991 0.00060788455 -0.018700812 -0.01889723 0.019568931 0.014446435 -0.03497171 0.000756587
0.015384695 0.010143038 -0.030349007 0.031746764 0.006573844 0.024802977 0.010118511 0.009560436
0.03644119 -0.027734902 0.038674675 -0.030620141 0.04366906 -0.012046867 -0.024656337 0.034147628
0.017490223 0.02344939 0.006351037 0.013743701 -0.02860425 -0.020013003 0.0344007 -0.023760993
0.0131423175 -0.027019251 0.03856127 -0.005800711 -0.026852049 0.014111152 0.049063507 0.0014730736

bias f4 [2]
00000000: 2efe 633c c2b6 81bc
0.013915582 -0.015834216
