weights_policy_net.pth (torch, 172256 bytes, 20 tensors)

weight f4 [16, 3, 5, 5]
-1.5742723 1.4271575 1.6149318 -1.6517587 -0.31266594 3.3280416 -1.1385798 -0.5578583
-2.5752194 0.25718257 -0.25618055 0.46841526 0.073040284 -0.9718478 1.2446668 -1.0924602
-0.6165957 -0.7103219 -1.413576 -1.0363312 -1.3829482 0.70440507 -1.2251565 0.4013339
0.11127936 -1.2960097 1.0684562 0.82686085 -2.7150774 -0.5272911 3.1268156 -0.6091059
-0.14058436 -2.0157413 0.4999599 0.10948146 0.10808061 0.24413502 -1.2000504 0.5247269
-0.57223946 0.0075429073 0.19206572 -0.7288263 -0.35757843 -0.7658274 0.40507808 -0.9612434
1.0108645 0.5042088 -0.5562824 0.5053656 0.6562988 -2.3797996 -0.6346917 2.9252143
-0.7508987 0.08854541 -1.3381904 0.6184617 -0.058154643 0.21624085 0.14505532 -1.5611576
0.5102155 -0.008242257 0.16999112 0.33483148 -0.7390185 -0.7984537 -0.23904589 0.7679398
-0.44366455 1.0847248 0.7786945 -0.4383569 -0.96037203 0.996645 -0.71550506 -1.2906035
-0.763266 -1.3097072 0.20321615 -0.1274655 -0.013224529 -1.651231 -1.2382691 -1.5822461
-0.40290496 0.31145924 0.9812064 0.6572737 -0.10290066 -1.084929 0.8998337 0.5967016
0.2588697 0.5959433 -2.0010026 1.2477441 -0.10945407 -1.0837169 1.0389115 -0.37692422
-1.4544425 -0.8737808 -1.6065285 0.34012944 0.29304764 -0.74797773 -1.231273 -1.2742057
-0.8645203 0.905611 0.5597684 1.1487368 0.78855205 -0.3739761 -1.028747 -0.30824888
0.4352876 0.82622886 -0.0014640838 -2.8770754 -0.21260707 -0.023296118 -1.3461372 0.7222837
-0.25690004 -1.3559871 -1.0475829 -1.082957 0.46909854 0.5608238 -0.52847224 -0.9210021
-1.1734002 -0.80667865 0.8691948 0.47706935 1.1034076 0.9404862 -0.7355798 -0.89113736
0.37391406 0.06315346 0.8388974 -0.38130096 -3.1919634 -0.123668455 -0.053821303 0.31474674
0.6030443 -0.74293566 -0.6681052 1.9503548 1.2833762 1.0079147 -1.7752185 -0.4749842
-0.49040604 -1.4626573 -0.9629046 -0.28112423 1.6831703 -0.42489615 2.1262238 -1.1842693
-1.4086547 -1.3047464 -1.4889475 -0.42387605 -1.4634736 0.9377044 -0.592416 0.57113427
0.36572504 0.60935694 -0.7912123 -1.1121511 1.5937948 1.414379 0.7163283 -0.8003636
-0.023660438 -0.47408655 -1.3923652 -1.0124626 0.80328846 0.42312816 -0.5531025 1.9931405
-0.74244016 -0.88704693 0.5137664 -1.3916028 -0.6436295 -0.9163455 1.9863281 -0.5492724
0.75552624 0.0050325748 0.27623034 -0.7256579 -1.2619375 1.5291816 1.1793832 0.6563079
-0.57841897 0.4481603 -1.0226426 -1.4023708 -0.92898387 0.71954066 0.40504175 -0.6759856
1.7423073 -0.2638304 -0.6746574 0.78765476 -1.7481596 -0.88619566 -0.5355444 2.1053855
-0.2577639 0.80705047 -1.7013141 -1.5696043 -0.34443277 -0.0034743901 -0.6879949 -0.033451743
-2.2726293 2.8630896 -0.105769545 -0.58756435 0.1954912 0.4233282 0.3410224 -0.43480885
0.7290378 -0.056238707 -1.2705708 0.16165327 -1.2837586 -1.3520977 -0.43924177 0.09834069
0.5219155 1.2846737 0.65031177 -1.5413461 -1.3269751 -0.20864983 0.2177329 -0.48656687
00000000: c181 c9bf 19ad b63f 16b6 ce3f d46c d3bf
00000010: c015 a0be a2fe 5440 fcbc 91bf cdcf 0ebf
00000020: 65d0 24c0 6fad 833e 192a 83be 20d4 ef3e
00000030: 2596 953d 04cb 78bf 3e51 9f3f bcd5 8bbf
00000040: 37d9 1dbf a8d7 35bf 0ff0 b4bf 80a6 84bf
00000050: 7204 b1bf e453 343f eed1 9cbf a37b cd3e
00000060: 6fe6 e33d a5e3 a5bf 2cc3 883f 27ad 533f
00000070: d4c3 2dc0 8dfc 06bf bf1d 4840 5dee 1bbf
00000080: 59f5 0fbe e801 01c0 befa ff3e d137 e03d
00000090: 5e59 dd3d 88fe 793e 409b 99bf 8154 063f
000000a0: 497e 12bf 7e2a f73b e0ac 443e 5c94 3abf
000000b0: 8514 b7be 440d 44bf 6566 cf3e 0c14 76bf
000000c0: 0264 813f d413 013f 8668 0ebf a45f 013f
000000d0: 3303 283f a34e 18c0 287b 22bf b636 3b40
000000e0: e63a 40bf 4c57 b53d d349 abbf 8253 1e3f
000000f0: 9033 6ebd 3e6e 5d3e 6289 143e 03d4 c7bf
00000100: 7c9d 023f 880a 07bc 2712 2e3e 086f ab3e
00000110: 5130 3dbf 7667 4cbf 72c8 74be b497 443f
00000120: 0028 e3be 43d8 8a3f 8658 473f 5170 e0be
00000130: f1da 75bf 2024 7f3f 572b 37bf 7f32 a5bf
00000140: 6765 43bf 7ca4 a7bf e517 503e 5186 02be
00000150: b2ab 58bc 8a5b d3bf 9a7f 9ebf 0a87 cabf
00000160: 8f49 cebe 9677 9f3e 5830 7b3f 1743 283f
00000170: 95bd d2bd f4de 8abf 805b 663f 70c1 183f
00000180: 928a 843e bd8f 183f 6d10 00c0 14b6 9f3f
00000190: 7529 e0bd 3cb7 8abf 0dfb 843f 36fc c0be
000001a0: 2c2b babf 19b0 5fbf baa2 cdbf 7225 ae3e
000001b0: 570a 963e 787b 3fbf 5b9a 9dbf 2c19 a3bf
000001c0: 3451 5dbf 1fd6 673f fb4c 0f3f cf09 933f
000001d0: 8cde 493f cc79 bfbe fbad 83bf ccd2 9dbe
000001e0: 04de de3e bc83 533f 80e6 bfba 0122 38c0
000001f0: abb5 59be 80d7 bebc 394e acbf 96e7 383f
00000200: 6788 83be fc90 adbf 3217 86bf 569e 8abf
00000210: af2d f03e 2692 0f3f f549 07bf cbc6 6bbf
00000220: fa31 96bf 7e82 4ebf 8d83 5e3f 6f42 f43e
00000230: 763c 8d3f b4c3 703f f54e 3cbf 9421 64bf
00000240: aa71 bf3e 9a56 813d fbc1 563f e139 c3be
00000250: 2149 4cc0 e345 fdbd ba73 5cbd 7c26 a13e
00000260: 1c61 1a3f 0831 3ebf f108 2bbf 3aa5 f93f
00000270: ac45 a43f 5903 813f 5c3a e3bf 2131 f3be
00000280: 8016 fbbe 5b38 bbbf ea80 76bf 84ef 8fbe
00000290: 2072 d73f fd8b d9be 0d14 0840 2396 97bf
000002a0: cc4e b4bf ee01 a7bf d595 bebf 4806 d9be
000002b0: 1a53 bbbf 650d 703f 93a8 17bf db35 123f
000002c0: 5040 bb3e d1fe 1b3f e48c 4abf f85a 8ebf
000002d0: 7801 cc3f 5f0a b53f 4b61 373f a1e4 4cbf
000002e0: 89d3 c1bc 79bb f2be 0639 b2bf 6098 81bf
000002f0: 50a4 4d3f 41a4 d83e 2098 0dbf 3a1f ff3f
00000300: 8f10 3ebf 8215 63bf 3286 033f 0a20 b2bf
00000310: e7c4 24bf 9e95 6abf 0040 fe3f 1e9d 0cbf
00000320: 2b6a 413f 4ce8 a43b 106e 8d3e b7c4 39bf
00000330: 2b87 a1bf 39bc c33f 07f6 963f cb03 283f
00000340: 4413 14bf 4475 e53e f4e5 82bf e380 b3bf
00000350: e3d1 6dbf d133 383f a261 cf3e 640d 2dbf
00000360: ed03 df3f c714 87be 59b6 2cbf bea3 493f
00000370: b2c3 dfbf b8dd 62bf 7019 09bf a3be 0640
00000380: a1f9 83be dc9a 4e3f a9c4 d9bf cbe8 c8bf
00000390: 7e59 b0be 98b2 63bb 6f20 30bf b204 09bd
000003a0: c272 11c0 dc3c 3740 b49d d8bd 9e6a 16bf
000003b0: d82e 483e 79be d83e 7d9a ae3e 449f debe
000003c0: 39a2 3a3f 8f5a 66bd 10a2 a2bf 6f88 253e
000003d0: 3452 a4bf 8a11 adbf 4ce4 e0be d866 c93d
000003e0: 419c 053f 3070 a43f d57a 263f d44a c5bf
000003f0: 52da a9bf 4da8 55be 60f5 5e3e 4b1f f9be

bias f4 [16]
-0.70741946 0.14915508 -1.8265659 -0.85808307 -0.0736856 1.5631733 0.5823843 -1.4957803
0.49494648 -0.37812015 -0.2245385 -0.9714002 -1.6516812 -0.0032661734 -0.6982673 -0.518313
00000000: 7119 35bf 1cbc 183e e9cc e9bf 55ab 5bbf
00000010: 7ae8 96bd 1016 c83f 2317 153f bb75 bfbf
00000020: a069 fd3e f798 c1be 6ced 65be afad 78bf
00000030: 4a6a d3bf 4c0d 56bb a5c1 32bf 29b0 04bf

weight f4 [16]
0.5510866 0.8683268 1.6254759 2.0224247 0.8708061 2.5140266 1.547443 0.59589833
0.4669687 0.8547232 1.4505248 1.6336731 1.012381 1.0154737 2.2517962 1.1369721
00000000: 0314 0d3f aa4a 5e3f 980f d03f 686f 0140
00000010: 26ed 5e3f d0e5 2040 9d12 c63f cb8c 183f
00000020: 8516 ef3e 24cf 5a3f ccaa b93f 331c d13f
00000030: b395 813f 0bfb 813f 6e1d 1040 4d88 913f

bias f4 [16]
0.76517737 -0.767103 0.5187041 1.8022434 -0.47989962 0.07549645 -0.19864501 -0.4466397
0.9597317 1.3000746 -0.8410779 -0.30071452 0.5091794 -0.7460001 1.1324149 1.0134072
00000000: aae2 433f dd60 44bf cbc9 043f e9af e63f
00000010: 67b5 f5be e29d 9a3d 9969 4bbe f5ad e4be
00000020: fab0 753f d868 a63f e250 57bf 41f7 99be
00000030: 9559 023f ddf9 3ebf f9f2 903f 54b7 813f

running_mean f4 [16]
-0.7244315 0.13147753 -1.8371078 -0.87937486 -0.04522924 1.5426333 0.59727067 -1.5113145
0.48540914 -0.37736055 -0.22833326 -0.94748706 -1.6392848 -0.021093447 -0.6917683 -0.53447807
00000000: 5874 39bf 0ca2 063e 5926 ebbf b61e 61bf
00000010: 4c42 39bd 0275 c53f bbe6 183f c172 c1bf
00000020: 8c87 f83e 6735 c1be 32d0 69be 838e 72bf
00000030: 16d4 d1bf 2acc acbc ba17 31bf 8ed3 08bf

running_var f4 [16]
0.08025135 0.047217358 0.017948862 0.011917734 0.040982045 0.005942208 0.034248956 0.098775245
0.057129636 0.07548799 0.042979997 0.019968065 0.02787468 0.13541816 0.013194886 0.04318558
00000000: d25a a43d fd66 413d 7e09 933c 9942 433c
00000010: cadc 273d dbb6 c23b a248 0c3d ad4a ca3d
00000020: c400 6a3d 7399 9a3d cb0b 303d 1194 a33c
00000030: 7159 e43c 0fab 0a3e 5d2f 583c 5de3 303d

weight f4 [32, 16, 5, 5]
0.63643646 0.052599844 0.34901306 -0.2754108 -1.2978313 1.0478026 -0.15195009 1.4744451
-2.4708545 -0.27582464 1.269728 -1.1901 0.7561785 -3.0984473 -0.32758093 0.46939108
-0.8541535 -0.6935379 -0.5432642 -0.051237226 -0.020856967 -1.1075866 0.34024704 -1.3576949
-0.030368222 1.4043132 -1.9118793 1.691418 -2.3417733 -0.93310136 0.883872 -0.5274562
-0.15236692 0.5572266 -0.067895316 1.263301 -1.0404371 0.09456737 0.20912406 0.8648971
0.71688825 -0.054892313 0.7115943 -0.5079638 0.29618204 1.1067426 -1.1319516 0.41569558
0.78229684 1.4875306 0.20085384 -0.25502813 -0.48494628 1.7634984 -1.7641661 -2.1983817
-0.487806 -0.4406718 -0.83898336 0.6340285 -0.96455586 -2.9636245 -0.6577729 -1.1062102
0.18560976 -0.48846123 0.96744514 -0.8444211 -0.39882797 -0.63489854 0.048669323 -0.2529815
-0.55601346 -2.482465 -1.4635092 -0.21848741 0.6614214 -3.2809467 -0.14641906 -1.1390008
0.609668 -1.9395081 0.64012873 -0.378808 -0.32674813 -2.591953 2.4955826 -0.6873961
-0.02944021 -0.34389675 -1.0059462 -0.51157016 1.5228012 0.9595108 -0.13583735 -1.3219239
1.3140715 -1.119853 1.4794455 0.64202434 -0.7813676 -0.3487713 0.3879175 -0.25009885
-0.17960899 -1.903402 -0.5440069 0.102309994 -2.2947125 0.46999463 -0.7556593 -0.31605807
0.15828612 -2.4790769 0.1422823 1.5716946 -1.666082 -0.0753927 0.49553555 0.30743596
1.6644113 0.93633026 0.38424307 -0.05598737 0.136001 -0.8444106 -1.941425 0.9347113
-1.7233955 0.24947594 -2.1639936 -0.17991212 0.551852 -0.7375133 -0.80109936 0.55585426
0.07440525 -0.53517115 -1.1759796 -1.5765918 0.19758472 -0.32526597 0.5647067 0.029447472
-0.45787388 -0.009273158 -1.9684718 0.8513338 0.31169492 -0.3502984 -1.2815796 -1.6499327
-0.119273886 -1.0129793 -1.2005507 -0.44245473 0.1937266 0.15048999 -0.55766046 -0.2756507
-2.5769587 -0.82447857 -0.45427352 -0.09128985 0.89833516 -3.498687 -1.9873372 0.6636789
1.1579671 0.34307316 -1.9990704 -1.1301051 0.20528495 -0.3488413 0.7582746 -0.09575901
-1.0943185 2.6892395 -0.29462737 -0.7043757 0.5538361 -1.4007329 1.2858521 0.096153766
-0.09754133 -1.0299847 -2.7550607 1.3729857 0.39269313 0.094977796 -1.7584113 -1.7447491
0.6353994 0.40837815 0.46205267 -1.527106 -0.8896117 0.60640997 -0.8638452 -0.30029452
-2.492534 -0.2601551 -0.11736053 0.093022175 -1.2700702 -0.41377217 -1.9917694 -0.30208585
0.59012705 0.4255977 -0.8420084 0.030071817 -1.045032 -0.40778196 -0.52327704 -0.86440456
-1.2109119 1.1228131 -0.73216385 -0.2073649 -1.7414322 -2.6167035 1.7035539 -1.0925967
-0.18068442 -0.20800398 -0.093650065 2.2578933 -0.6320128 -0.26541236 0.5120752 1.0701361
0.95346856 -2.317801 1.2511493 0.9990687 -0.5854818 0.21705508 -1.3298638 1.044676
0.16820337 -0.049069554 -0.38735402 -0.0061253672 0.7306438 -0.3518244 -0.6139038 -0.45861903
-0.9380271 -0.21418121 -2.8103528 1.4746464 0.20807141 -1.4363049 -1.2086015 -3.0757053
00000000: 80ed 223f ef72 573d d7b1 b23e a502 8dbe
00000010: 561f a6bf 651e 863f ce98 1bbe 9eba bc3f
00000020: 7b22 1ec0 e338 8dbe 7286 a23f 3255 98bf
00000030: ea94 413f f64c 46c0 b0b8 a7be 0754 f03e
00000040: cea9 5abf b38b 31bf 5d13 0bbf 20de 51bd
00000050: 3bdc aabc 66c5 8dbf dc34 ae3e f2c8 adbf
00000060: c7c6 f8bc 89c0 b33f 76b8 f4bf 6380 d83f
00000070: 9ddf 15c0 bbdf 6ebf 6f45 623f 5f07 07bf
00000080: 1306 1cbe 67a6 0e3f b30c 8bbd d9b3 a13f
00000090: 0b2d 85bf 8aac c13d 9e24 563e e569 5d3f
000000a0: fd85 373f c3d6 60bd 0b2b 363f ea09 02bf
000000b0: 2ca5 973e bea9 8d3f cae3 90bf 0dd6 d43e
000000c0: 9b44 483f 6767 be3f a1ac 4d3e 0c93 82be
000000d0: e14a f8be 51ba e13f 32d0 e1bf 49b2 0cc0
000000e0: b5c1 f9be bc9f e1be 9dc7 56bf b14f 223f
000000f0: 22ed 76bf 06ac 3dc0 ce63 28bf 4c98 8dbf
00000100: 7c10 3e3e 9717 fabe 7caa 773f fb2b 58bf
00000110: 2e33 ccbe b688 22bf 7c59 473d cb86 81be
00000120: e656 0ebf b5e0 1ec0 4554 bbbf 2abb 5fbe
00000130: ea52 293f 08fb 51c0 e1ee 15be c7ca 91bf
00000140: 3413 1c3f cd41 f8bf 7adf 233f 1ff3 c1be
00000150: 884b a7be 8fe2 25c0 a0b7 1f40 31f9 2fbf
00000160: 982c f1bc 3c13 b0be d8c2 80bf 43f6 02bf
00000170: 26eb c23f 80a2 753f f218 0bbe cd34 a9bf
00000180: 7f33 a83f 5857 8fbf 785e bd3f b55b 243f
00000190: b507 48bf 2792 b2be 1f9d c63e f50c 80be
000001a0: 6beb 37be ada2 f3bf 0944 0bbf e787 d13d
000001b0: 92dc 12c0 23a3 f03e e372 41bf 5dd2 a1be
000001c0: c215 223e 32a9 1ec0 74b2 113e 4a2d c93f
000001d0: 2d42 d5bf 7d67 9abd d6b6 fd3e 3f68 9d3e
000001e0: 6e0b d53f 57b3 6f3f 82bb c43e 0353 65bd
000001f0: d943 0b3e 4b2b 58bf 9d80 f8bf 3d49 6f3f
00000200: 3998 dcbf 9f76 7f3e df7e 0ac0 e23a 38be
00000210: 2c46 0d3f accd 3cbf d914 4dbf 774c 0e3f
00000220: c861 983d fa00 09bf 8086 96bf c3cd c9bf
00000230: a653 4a3e 4389 a6be 9e90 103f d33b f13c
00000240: 726e eabe 72ee 17bc e2f6 fbbf 03f1 593f
00000250: 7a96 9f3e 505a b3be cd0a a4bf ff30 d3bf
00000260: de45 f4bd 4ea9 81bf a5ab 99bf 6d89 e2be
00000270: 4460 463e 0c1a 1a3e d6c2 0ebf 1722 8dbe
00000280: e4ec 24c0 0711 53bf 8a96 e8be 2cf6 babd
00000290: 4bf9 653f 7dea 5fc0 1161 febf dce6 293f
000002a0: 4438 943f 49a7 af3e 8ae1 ffbf 49a7 90bf
000002b0: 3836 523e 549b b2be 491e 423f 4d1d c4bd
000002c0: a112 8cbf 801c 2c40 66d9 96be f751 34bf
000002d0: 34c8 0d3f 374b b3bf cd96 a43f 44ec c43d
000002e0: c0c3 c7bd 8ad6 83bf ea52 30c0 ffbd af3f
000002f0: 130f c93e b883 c23d 9f13 e1bf f053 dfbf
00000300: 89a9 223f f116 d13e 2b92 ec3e 3678 c3bf
00000310: 98bd 63bf af3d 1b3f f624 5dbf 34c0 99be
00000320: ad85 1fc0 0d33 85be b85a f0bd 6982 be3d
00000330: a991 a2bf f2d9 d3be 4df2 febf ffaa 9abe
00000340: 9112 173f f1e7 d93e dd8d 57bf 2c59 f63c
00000350: 9cc3 85bf ccc8 d0be 7cf5 05bf 9e49 5dbf
00000360: 29ff 9abf 57b8 8f3f 176f 3bbf 7757 54be
00000370: 40e7 debf 1278 27c0 0e0e da3f 35da 8bbf
00000380: 5605 39be fffe 54be 9bcb bfbd 5381 1040
00000390: 97cb 21bf 21e4 87be 5c17 033f 38fa 883f
000003a0: 8416 743f da56 14c0 a925 a03f f7c2 7f3f
000003b0: 23e2 15bf b043 5e3e fa38 aabf f1b7 853f
000003c0: 813d 2c3e 28fd 48bd 4453 c6be 4eb7 c8bb
000003d0: 790b 3b3f 5422 b4be cd28 1dbf 1dd0 eabe
000003e0: 8b22 70bf 5252 5bbe d2dc 33c0 37c1 bc3f
000003f0: ac10 553e d7d8 b7bf 74b3 9abf 5bd8 44c0

bias f4 [32]
0.84289724 0.81912184 0.04134117 -0.7524892 0.0035855789 -0.10616578 0.41450012 0.51307863
0.24235588 -0.59129906 -0.6426303 -1.1044837 0.55047965 0.03211272 -0.4446283 0.22406723
-0.10806257 0.27780664 -0.60984594 -0.5214752 -0.29354593 0.7072781 -0.09835705 -0.030087749
-0.24170873 0.26234332 1.3494438 -1.467596 -0.4521769 -0.55532295 0.8811277 -1.0460057
00000000: 1dc8 573f f8b1 513f 5c55 293d 22a3 40bf
00000010: 08fc 6a3b 726d d9bd 5c39 d43e 1f59 033f
00000020: 242c 783e 605f 17bf 6b83 24bf b95f 8dbf
00000030: 3cec 0c3f a188 033d 52a6 e3be e171 653e
00000040: e94f ddbd ac3c 8e3e dd1e 1cbf 667f 05bf
00000050: a74b 96be 2d10 353f 6c6f c9bd 957a f6bc
00000060: 7e82 77be dd51 863e 93ba ac3f 30da bbbf
00000070: bb83 e7be a529 0ebf 9691 613f 84e3 85bf

weight f4 [32]
2.997042 2.266277 0.8445251 2.2151062 1.5438032 0.6176746 1.251347 0.0016296208
2.375132 1.9693466 3.030016 2.5370343 2.8344898 0.6056081 0.45588684 3.4917555
0.22494832 2.305763 2.4808006 0.57548803 2.8664923 2.0135489 2.8641446 3.3014913
2.2729254 1.9527454 1.7799485 3.154631 2.8070567 0.70177174 2.8472633 2.1489024
00000000: 89cf 3f40 af0a 1140 cc32 583f 4dc4 0d40
00000010: 589b c53f ec1f 1e3f 232c a03f 0099 d53a
00000020: 2a02 1840 8d13 fc3f c8eb 4140 c55e 2240
00000030: 4868 3540 2209 1b3f 006a e93e ec78 5f40
00000040: da58 663e 9f91 1340 70c5 1e40 2f53 133f
00000050: 9c74 3740 fcdd 0040 254e 3740 a24b 5340
00000060: 9c77 1140 90f3 f93f 5ad5 e33f 79e5 4940
00000070: d1a6 3340 50a7 333f 9039 3640 9e87 0940

bias f4 [32]
-0.020198245 -0.14441195 -1.0511959 -0.83714366 -0.3680178 -0.9119045 -0.6994227 -0.02688339
-0.11714391 0.71569306 -0.14754525 0.18271738 -0.59960765 -0.42966926 -0.43743291 -0.16590445
-0.91065145 -0.13981469 0.17602603 -0.86303645 -0.30764997 -0.06876637 -0.020947542 0.37312472
-0.15826575 -0.52176565 -0.1804317 -0.12525561 -0.85842705 -1.3890302 -0.15145008 0.46433815
00000000: ca76 a5bc bae0 13be 968d 86bf 0c4f 56bf
00000010: d46c bcbe 9372 69bf 5e0d 33bf 8e3a dcbc
00000020: 25e9 efbd a937 373f 1a16 17be 441a 3b3e
00000030: e37f 19bf 9cfd dbbe 35f7 dfbe dbe2 29be
00000040: 7420 69bf 952b 0fbe 2b40 343e f5ef 5cbf
00000050: 4c84 9dbe 62d5 8cbd 2e9a abbc 340a bf3e
00000060: 6b10 22be 6f92 05bf 16c3 38be 0243 00be
00000070: e0c1 5bbf becb b1bf bb15 1bbe bbbd ed3e

running_mean f4 [32]
-84.712776 -79.01651 61.904274 -40.20276 -62.618126 33.60592 -49.194153 -8.430417
-98.07232 -83.57143 -78.585655 -94.32204 -79.23052 -62.120167 65.07121 -77.658005
-72.64702 -110.085915 -87.57251 49.388386 -55.80919 -92.45956 -84.42483 -44.218742
-86.926094 -53.10584 -83.83024 -58.517567 -64.05228 88.032364 -91.1642 -76.12501
00000000: f16c a9c2 7408 9ec2 fa9d 7742 a0cf 20c2
00000010: f678 7ac2 766c 0642 d0c6 44c2 fde2 06c1
00000020: 0725 c4c2 9224 a7c2 db2b 9dc2 e2a4 bcc2
00000030: 0776 9ec2 0d7b 78c2 7624 8242 e650 9bc2
00000040: 464b 91c2 fd2b dcc2 2025 afc2 b58d 4542
00000050: 9c3c 5fc2 4beb b8c2 83d9 a8c2 fedf 30c2
00000060: 29da adc2 616c 54c2 15a9 a7c2 fd11 6ac2
00000070: c41a 80c2 9210 b042 1254 b6c2 0140 98c2

running_var f4 [32]
2478.383 2015.9487 1249.1255 1302.7325 957.2214 985.65106 1717.3783 1163.3394
2293.5474 2522.6597 1396.1101 3103.8257 2377.9175 919.605 1964.9478 1978.3376
1709.6642 4214.5986 2598.5793 1781.1107 2314.5447 1658.7612 2538.2046 1243.2161
1795.5952 1660.4834 2276.0195 1750.5564 2203.528 1826.5831 2443.9087 3344.876
00000000: 21e6 1a45 5cfe fb44 0424 9c44 71d7 a244
00000010: 2b4e 6f44 ab69 7644 1bac d644 dc6a 9144
00000020: c258 0f45 8eaa 1d45 8683 ae44 36fd 4145
00000030: ae9e 1445 b8e6 6544 549e f544 ce4a f744
00000040: 41b5 d544 cab4 8345 4569 2245 8ba3 de44
00000050: b7a8 1045 5c58 cf44 46a3 1e45 ea66 9b44
00000060: 0c73 e044 788f cf44 5040 0e45 ced1 da44
00000070: 73b8 0945 a952 e444 8abe 1845 040e 5145

weight f4 [32, 32, 5, 5]
-1.4102834 0.4861371 -0.47743103 0.033392772 -0.81996423 -0.048813045 0.6133633 0.08700824
0.6811525 0.42483404 -1.283538 -1.3502247 -2.1292841 -0.012524678 0.17555305 1.8186276
-0.500636 0.5053035 0.109516256 0.5962618 0.6719903 -0.4265106 -0.36467397 0.98255384
0.5064963 -0.07902479 0.07534031 0.34404033 0.5234993 -0.010826472 -0.68784076 0.58420014
-0.51069295 0.5755673 -0.96055305 0.033323526 -1.1603751 -2.1125886 -0.8228888 -0.16274355
0.6744403 -0.047987442 1.0946331 0.4935492 0.116450146 0.3921381 -2.0078337 0.1310258
0.24709992 -1.4796752 -0.597988 0.9641652 0.98043084 1.1744362 2.0810587 -0.98852664
-0.5960879 0.42671612 -0.7426848 1.9485072 -0.17836742 -0.30612606 0.6727653 -1.214357
0.7564371 -1.0352947 -1.6492509 0.2576163 -1.2747233 0.7418888 -0.92911065 -1.5846937
0.21869071 0.9044991 1.8507699 -2.494375 0.020792175 0.7115411 0.09106503 1.1258063
0.43698055 -0.981237 0.61923957 -0.8923305 1.2109116 -1.1487547 -0.23942217 -0.080265686
-0.8762429 1.5851903 -3.0225735 1.470491 0.44039148 -0.92087567 1.0376475 -1.0924023
-0.9987388 1.5575423 -0.5724374 -0.22461487 -1.3502054 -0.57224554 -0.068701185 -0.08719593
-1.4034903 -0.7961402 -0.14485227 0.3916497 -0.50676435 0.30132324 -0.95027214 -0.17189066
0.813832 -1.8041786 -0.7559012 0.33031994 0.812032 0.010341717 -1.4093982 0.8913344
0.024720509 -1.422333 0.7702092 0.31952444 1.7093908 -0.08257494 1.6174098 0.72826815
0.3511275 1.58691 -0.91809314 -0.6376536 0.1688264 -0.8086429 1.8275294 -0.34215048
-1.17926 0.782797 -0.009834555 1.678163 -0.69981706 -1.7989942 0.3000024 -0.08859327
0.3437583 0.13379954 -0.777845 -0.85159576 -0.60163283 -0.5255123 1.0677594 0.36271566
1.1525682 0.14816391 0.46571535 -0.3481678 -0.30722153 1.2973502 -0.5090764 1.5917009
-0.5565881 0.403414 -1.5372467 -0.7469116 0.17701887 -1.0130194 0.28496218 0.22575113
-0.45023978 0.8233716 0.6511994 -3.1027005 0.44560632 -0.8991652 0.0076683834 0.57487154
0.9787536 0.6794874 -0.38385707 0.17312816 0.11094205 -0.26808763 0.012247315 -0.19979484
0.6488928 0.4301901 -0.79714084 -0.262401 -0.12547983 -0.6361748 -0.94307506 0.41435197
0.24328887 -0.2911232 -0.39407983 1.4345475 -0.6521035 -0.8793288 0.31802803 0.71189284
1.7171957 -0.821399 -1.1810952 0.9397026 0.681204 1.7992672 0.39079833 -1.4424758
1.4432615 0.72720665 0.09117776 1.2075675 -2.2149007 0.16036293 1.5348797 0.036763925
-2.1013594 1.3007714 0.2519182 -1.3154254 0.9604281 -0.34171864 -0.90877956 0.037950832
0.010090677 -1.177135 0.13053182 -1.437011 0.33102277 -0.095257126 -0.08915212 -1.3726145
-0.294965 -0.029560678 0.46654522 0.1451355 -0.39970088 -1.0666522 1.2858132 0.5190505
1.4619937 -0.13030607 1.6366411 1.0456333 0.24684039 0.7327904 -0.04556335 -0.15618274
0.59499323 0.5544335 0.743402 0.5888495 0.4031386 1.4000722 0.4206672 0.6723323
00000000: 2b84 b4bf f6e6 f83e d771 f4be dcc6 083d
00000010: 2de9 51bf 30f0 47bd 6105 1d3f 6031 b23d
00000020: 0360 2e3f d983 d93e f94a a4bf 2ad4 acbf
00000030: 3146 08c0 4f34 4dbc 2ec4 333e cac8 e83f
00000040: ae29 00bf 925b 013f 0f4a e03d 9da4 183f
00000050: 8e07 2c3f 995f dabe 8cb6 babe a688 7b3f
00000060: bea9 013f c0d7 a1bd 054c 9a3d 0e26 b03e
00000070: 0d04 063f 8461 31bc 5516 30bf 248e 153f
00000080: c6bc 02bf 6158 133f cee6 75bf 407e 083d
00000090: 2c87 94bf a734 07c0 d7a8 52bf 3fa6 26be
000000a0: 1fa8 2c3f 7b8e 44bd f01c 8c3f 7bb2 fc3e
000000b0: 6a7d ee3d 53c6 c83e 5980 00c0 a12b 063e
000000c0: c307 7d3e ff65 bdbf be15 19bf 88d3 763f
000000d0: 84fd 7a3f ed53 963f 1130 0540 1510 7dbf
000000e0: 3799 18bf 897a da3e 9720 3ebf af68 f93f
000000f0: f3a5 36be 8ebc 9cbe 593a 2c3f 0d70 9bbf
00000100: dda5 413f 8984 84bf a71a d3bf 49e6 833e
00000110: 222a a3bf 6dec 3d3f 32da 6dbf 3ed7 cabf
00000120: 75f0 5f3e 418d 673f 07e6 ec3f d7a3 1fc0
00000130: 5a54 aa3c 8f27 363f 4d80 ba3d 6c1a 903f
00000140: eabb df3e 5932 7bbf 7c86 1e3f c66f 64bf
00000150: 27ff 9a3f 650a 93bf 162b 75be 5662 a4bd
00000160: 7451 60bf 84e7 ca3f d871 41c0 0d39 bc3f
00000170: fe7a e13e 82be 6bbf a2d1 843f d7d3 8bbf
00000180: 59ad 7fbf 8c5d c73f 428b 12bf 7101 66be
00000190: 88d3 acbf af7e 12bf 35b3 8cbd c893 b2bd
000001a0: 92a5 b3bf d8cf 4bbf 2754 14be 4f86 c83e
000001b0: 4fbb 01bf 0a47 9a3e 0945 73bf 1b04 30be
000001c0: 4b57 503f 53ef e6bf be82 41bf b21f a93e
000001d0: 54e1 4f3f 4e70 293c 2967 b4bf 7e2e 643f
000001e0: aa82 ca3c 020f b6bf 6e2c 453f b598 a33e
000001f0: 51cd da3f 0d1d a9bd 4907 cf3f c86f 3a3f
00000200: fcc6 b33e de1f cb3f 2708 6bbf 443d 23bf
00000210: d4e0 2c3e 3903 4fbf 7cec e93f 592e afbe
00000220: fef1 96bf 6265 483f 1d21 21bc 0cce d63f
00000230: 3627 33bf 7145 e6bf ea99 993e 6370 b5bd
00000240: 1701 b03e bf02 093e da20 47bf 2e02 5abf
00000250: 9c04 1abf f987 06bf 57ac 883f deb5 b93e
00000260: 5b87 933f 48b8 173e 3e72 ee3e 0d43 b2be
00000270: 244c 9dbe 920f a63f d552 02bf dbbc cb3f
00000280: 8f7c 0ebf 488c ce3e 80c4 c4bf 9935 3fbf
00000290: 6f44 353e 9faa 81bf 90e6 913e 4e2b 673e
000002a0: d485 e6be 7bc8 523f 01b5 263f a592 46c0
000002b0: 8326 e43e b12f 66bf 1047 fb3b c82a 133f
000002c0: 998f 7a3f e3f2 2d3f ea88 c4be 8248 313e
000002d0: 9635 e33d c842 89be f6a8 483c 0597 4cbe
000002e0: d71d 263f e041 dc3e 6c11 4cbf 6d59 86be
000002f0: c97d 00be 5adc 22bf 5e6d 71bf f125 d43e
00000300: b820 793e 1a0e 95be d5c4 c9be 419f b73f
00000310: 41f0 26bf b11b 61bf 92d4 a23e 9c3e 363f
00000320: 12cd db3f 3447 52bf 212e 97bf 5990 703f
00000330: 6363 2e3f 634e e63f b816 c83e 0ca3 b8bf
00000340: cbbc b83f 372a 3a3f 68bb ba3d 9291 9a3f
00000350: efc0 0dc0 2e36 243e f076 c43f c595 163d
00000360: ac7c 06c0 ad7f a63f 6cfb 803e dc5f a8bf
00000370: 9ede 753f bff5 aebe c7a5 68bf 5572 1b3d
00000380: 5e53 253c 5cac 96bf 22aa 053e faef b7bf
00000390: d17b a93e 2b16 c3bd 6395 b6bd d5b1 afbf
000003a0: a705 97be 3c29 f2bc 04df ee3e 679e 143e
000003b0: 98a5 ccbe 0f88 88bf 8795 a43f 7ee0 043f
000003c0: 9c22 bb3f f46e 05be 757d d13f 50d7 853f
000003d0: bac3 7c3e 2798 3b3f a3a0 3abd 5eee 1fbe
000003e0: 7a51 183f 5bef 0d3f 984f 3e3f d7be 163f
000003f0: 2f68 ce3e 9135 b33f b161 d73e f81d 2c3f

bias f4 [32]
0.2142863 -0.6220402 -0.037367992 0.03502872 -0.102404535 0.17851442 0.029919805 -0.53587794
-0.433409 -0.02763479 0.02919299 0.38163686 0.50201684 0.5620007 -0.9500969 0.047591303
-0.015520365 -0.1994446 0.10753324 0.022370072 0.2604595 -0.28568056 -0.36931416 -0.03459382
-0.0050007636 0.1129138 -0.026386777 0.39884022 -0.35622177 0.003682788 -0.043946765 0.3815406
00000000: de6d 5b3e 073e 1fbf 2e0f 19bd 467a 0f3d
00000010: 78b9 d1bd 7ccc 363e 611a f53c 4c2f 09bf
00000020: c9e7 ddbe 5b62 e2bc 2326 ef3c e865 c33e
00000030: 2d84 003f 47df 0f3f 8d39 73bf 19ef 423d
00000040: 2149 7ebc 353b 4cbe 633a dc3d 7141 b73c
00000050: f35a 853e b944 92be bf16 bdbe 40b2 0dbd
00000060: 72dd a3bb 5a3f e73d 1529 d8bc c934 cc3e
00000070: b362 b6be ee5a 713b 8601 34bd 4a59 c33e

weight f4 [32]
0.7731344 0.35244432 0.44109786 0.23905256 0.51503795 1.4678302 0.27776802 1.1069423
1.1735107 0.370572 0.39606258 1.7175696 1.8451356 1.379512 1.5029012 1.466221
0.33105564 1.4076812 1.6678767 0.35139552 1.4617207 1.0154774 1.3508364 0.32454133
0.7452801 0.58425933 0.3641859 2.189293 1.1849966 0.26982495 0.30172256 1.9148878
00000000: 23ec 453f 9573 b43e 94d7 e13e 32ca 743e
00000010: 87d9 033f dce1 bb3f 9c37 8e3e 49b0 8d3f
00000020: 9935 963f 9dbb bd3e b7c8 ca3e 52d9 db3f
00000030: 672d ec3f d993 b03f 115f c03f 21ad bb3f
00000040: 2080 a93e e62e b43f fc7c d53f 1dea b33e
00000050: aa19 bb3f 2afb 813f 35e8 ac3f 482a a63e
00000060: adca 3e3f 0592 153f 9376 ba3e 601d 0c40
00000070: f8ad 973f 7f26 8a3e 617b 9a3e 0b1b f53f

bias f4 [32]
-1.136709 -0.87352484 -0.6887809 -0.6789923 -0.83074164 -0.80479556 -0.8300576 -0.97881424
-1.6466439 -0.54091305 -0.66964114 -1.2389117 -1.2539227 -1.2283128 0.8897467 0.11223906
-0.6642944 -1.505114 0.8869205 -0.69469875 0.52655154 -0.07347619 -1.0546278 -0.6361739
-1.4829525 -1.6383861 -0.6422383 -1.4945039 -1.3042902 -0.67188835 -0.9125775 0.98269445
00000000: ae7f 91bf 539f 5fbf f253 30bf 70d2 2dbf
00000010: 7cab 54bf 1507 4ebf a87e 54bf 9293 7abf
00000020: 3ac5 d2bf 4779 0abf 9a6d 2bbf a994 9ebf
00000030: 8a80 a0bf 5b39 9dbf 71c6 633f 98dd e53d
00000040: 330f 2abf 93a7 c0bf 390d 633f c7d7 31bf
00000050: 15cc 063f af7a 96bd 0bfe 86bf 4bdc 22bf
00000060: 63d1 bdbf a3b6 d1bf bb69 24bf e74b bfbf
00000070: fbf2 a6bf e000 2cbf ae9e 69bf dd91 7b3f

running_mean f4 [32]
35.422634 -14.604087 47.398964 72.07614 45.99545 -4.123242 78.576836 88.788704
-3.4811573 4.56987 30.108656 84.89035 -9.586379 73.875595 -21.258808 -104.200226
-8.250609 95.40899 141.6954 24.194126 -185.05351 -56.036564 27.043617 42.196293
128.92542 39.085407 13.66313 9.460285 -19.033014 79.63791 87.696556 85.206856
00000000: c7b0 0d42 57aa 69c1 8a98 3d42 fc26 9042
00000010: 57fb 3742 99f1 83c0 5727 9d42 d193 b142
00000020: 48cb 5ec0 603c 9240 87de f041 dcc7 a942
00000030: cf61 19c1 4ec0 9342 0a12 aac1 8466 d0c2
00000040: 7f02 04c1 67d1 be42 06b2 0d43 928d c141
00000050: b30d 39c3 7125 60c2 5459 d841 01c9 2842
00000060: e8ec 0043 7557 1c42 2e9c 5a41 545d 1741
00000070: 9d43 98c1 9c46 9f42 a364 af42 e969 aa42

running_var f4 [32]
376.4081 603.08435 905.7588 668.7683 534.3419 516.2451 946.8132 871.32196
505.2775 685.48004 445.92596 1342.2606 528.67035 756.2852 755.33997 1582.2074
351.02795 1599.924 1916.6373 433.7593 3661.2966 945.53107 415.84744 889.9805
1704.1884 731.49817 422.20892 733.33344 402.4803 1434.6864 1007.1075 1711.3965
00000000: 3d34 bc43 66c5 1644 9070 6244 2c31 2744
00000010: e295 0544 b00f 0144 0bb4 6c44 9bd4 5944
00000020: 85a3 fc43 b95e 2b44 86f6 de43 57c8 a744
00000030: e72a 0444 4112 3d44 c2d5 3c44 a3c6 c544
00000040: 9483 af43 91fd c744 6594 ef44 31e1 d843
00000050: bfd4 6445 fd61 6c44 79ec cf43 c17e 5e44
00000060: 0706 d544 e2df 3644 be1a d343 5755 3744
00000070: 7a3d c943 f755 b344 e1c6 7b44 b0ec d544

weight f4 [2, 512]
-0.13691497 -0.054995812 0.21532778 -1.0817791 0.1466772 1.631206 1.2151493 1.7847978
-0.11111986 -0.082345806 0.73824155 2.0050817 1.3101381 -3.196529 -0.21420895 0.5080967
0.1702802 0.16538443 0.4343298 0.8060665 -0.37519294 -0.46918285 -0.36457735 0.013145119
0.21987095 -0.3024132 -0.37399966 1.4053881 -0.5329488 0.9605757 1.1581423 0.68623286
-0.021459408 -0.035419866 0.012405062 -0.09937483 0.020687044 -0.043963026 -0.05716399 -0.0062862635
-0.04028918 -0.016965836 0.061981693 0.009230487 0.069960505 0.10641551 0.07181609 0.036804356
0.05592484 0.0927977 0.031211345 0.093654186 0.07565559 0.10796585 0.057509612 0.119549036
0.10158379 0.07909788 -0.04925657 0.0013217861 0.11010787 0.08880597 0.07464593 0.07627264
0.006649323 0.01512491 0.16933468 0.14338061 -0.14912844 0.1344198 0.142461 -0.0029247329
-0.014756985 0.0016595051 0.06927861 -0.31262952 -0.13923633 0.05751444 0.08971831 -0.056673147
-0.08493071 -0.04850033 -0.25827092 -2.700283 -0.5631723 -0.36556864 0.6198574 0.62376064
-0.0102241635 -0.004056208 0.6546318 1.7764758 -0.6866033 2.4456222 0.7185349 -0.6701565
0.037633255 -0.032447815 0.043041892 0.00924658 -0.13693579 0.17687595 0.037923202 -0.037761204
-0.00511539 0.023721725 0.06756378 -0.09158978 -0.1180114 0.19583717 -0.042251 0.024386644
0.13974479 0.15666103 0.2218372 1.4596429 1.1417862 1.000952 0.25920138 -1.2405772
0.124303006 0.1618635 0.08946398 0.79201275 -0.6539844 -2.2332673 -0.63008 1.0357147
0.09638824 0.065133065 -1.4985777 0.9204145 0.58363336 -0.4064237 0.01632568 0.66525507
0.11798279 -0.008759528 1.9370096 -2.3611836 0.1216616 0.030395268 -1.0478641 0.26726615
-0.070530854 -0.07413994 -0.001427196 -0.021740526 0.02277056 -0.10275133 -0.14847659 -0.0464281
-0.12932235 -0.12342458 0.044336554 0.15136851 -0.0615866 -0.17265907 -0.09110865 -0.1065564
0.019997798 0.08269878 0.19322003 0.14280355 -0.15679073 0.068450555 -0.112372294 0.023746155
0.018957458 0.013496824 0.15535273 0.058717474 0.13903198 -0.15247989 0.16759226 0.08414254
0.0053312453 0.04389466 0.24591857 1.4565977 -0.1746559 -0.9169359 -1.3449029 -0.3801826
0.040667273 0.0057884725 -1.6105564 0.43475497 -4.312369 -0.5056519 -0.054705005 0.45812157
0.13698162 0.07277639 1.9153367 -1.1737192 1.1652094 -0.45970476 -1.111036 -0.09455094
0.10701083 0.28048837 0.3406503 -1.6746583 -1.6730183 1.6546293 0.7104919 1.5453262
-0.3189433 -0.38190907 0.77764547 2.0261793 1.4912113 1.3659265 2.2731905 -0.6972491
-0.31431282 -1.0099351 0.13420194 1.8502471 -0.5530112 -0.48072714 0.20891638 -0.057095937
0.62202096 0.6936716 0.9198976 0.85684 0.5371386 1.2898828 0.74485934 0.64092743
0.70101917 0.6649438 0.8708095 0.5406774 1.2034961 1.2223235 0.61361283 0.61173797
0.13653943 0.18089607 0.07824363 -1.7385434 0.88191247 0.09899603 0.005841943 1.0907952
0.13180873 -0.4959883 1.6218814 0.51090413 1.0078046 0.09823818 -0.06346782 1.7812968
00000000: 7033 0cbe 4a43 61bd e37e 5c3e bd77 8abf
00000010: 8c32 163e 5ccb d03f 038a 9b3f 4174 e43f
00000020: cf92 e3bd eba4 a8bd 66fd 3c3f 4253 0040
00000030: 9bb2 a73f ee93 4cc0 9759 5bbe a012 023f
00000040: ef5d 2e3e 895a 293e 7a60 de3e 605a 4e3f
00000050: 4a19 c0be bc38 f0be e2a9 babe a05e 573c
00000060: da25 613e e7d5 9abe e27c bfbe c2e3 b33f
00000070: 556f 08bf 4ae8 753f 023e 943f f5ac 2f3f
00000080: a4cb afbc 6c14 11bd 9a3e 4b3c 0885 cbbd
00000090: e077 a93c 9312 34bd ca24 6abd 00fd cdbb
000000a0: 4406 25bd f0fb 8abc 84e0 7d3d 783b 173c
000000b0: 7447 8f3d 60f0 d93d 5014 933d 2ac0 163d
000000c0: 7211 653d b80c be3d efae ff3c c4cd bf3d
000000d0: 51f1 9a3d 331d dd3d 338f 6b3d 20d6 f43d
000000e0: 290b d03d 12fe a13d 42c1 49bd c83f ad3a
000000f0: 3c80 e13d e8df b53d f7df 983d d434 9c3d
00000100: 90e2 d93b 78ce 773c 1266 2d3e 5ed2 123e
00000110: 20b5 18be 58a5 093e 4ce1 113e e0ac 3fbb
00000120: 48c7 71bc c083 d93a f2e1 8d3d fa10 a0be
00000130: f893 0ebe 4394 6b3d 3cbe b73d 1a22 68bd
00000140: 27f0 adbd 48a8 46bd 163c 84be 70d1 2cc0
00000150: 0f2c 10bf d02b bbbe f9ae 1e3f c7ae 1f3f
00000160: 4083 27bc f0e9 84bb f395 273f 8f63 e33f
00000170: 3cc5 2fbf 1385 1c40 e7f1 373f 608f 2bbf
00000180: 5425 1a3d 00e8 04bd b24c 303d f87e 173c
00000190: e538 0cbe f81e 353e 5c55 1b3d 7eab 1abd
000001a0: 009f a7bb 1054 c23c e15e 8a3d 6c93 bbbd
000001b0: f6af f1bd 8a89 483e 620f 2dbd 80c6 c73c
000001c0: 4219 0f3e c06b 203e 4a29 633e 94d5 ba3f
000001d0: 0d26 923f 321f 803f 0bb6 843e 3ccb 9ebf
000001e0: 9392 fe3d 8cbf 253e e438 b73d 59c1 4a3f
000001f0: 866b 27bf daed 0ec0 ec4c 21bf 4d92 843f
00000200: 3367 c53d 7c64 853d 65d1 bfbf 49a0 6b3f
00000210: ff68 153f c416 d0be 6fbd 853c 284e 2a3f
00000220: f6a0 f13d 2084 0fbc eeef f73f a21d 17c0
00000230: b829 f93d 7fff f83c 6920 86bf 1cd7 883e
00000240: 7b72 90bd aed6 97bd c010 bbba 3019 b2bc
00000250: 5389 ba3c 4a6f d2bd 3f0a 18be 642b 3ebd
00000260: 146d 04be 07c6 fcbd 3f9a 353d 5900 1b3e
00000270: 3b42 7cbd 8acd 30be 2c97 babd 3e3a dabd
00000280: 6cd2 a33c fa5d a93d 79db 453e 183b 123e
00000290: c08d 20be ce2f 8c3d 7223 e6bd 4c87 c23c
000002a0: ac4c 9b3c c821 5d3c c914 1f3e bc81 703d
000002b0: 665e 0e3e b023 1cbe 4e9d 2b3e ed52 ac3d
000002c0: bab1 ae3b e3ca 333d 14d2 7b3e cb71 ba3f
000002d0: ffd8 32be 50bc 6abf c725 acbf 4ba7 c2be
000002e0: ba92 263d 3aad bd3b b626 cebf 3498 de3e
000002f0: edfe 89c0 6772 01bf 5b12 60bd e98e ea3e
00000300: e944 0c3e ca0b 953d c129 f53f 6e3c 96bf
00000310: 9525 953f 6c5e ebbe 6d36 8ebf eca3 c1bd
00000320: 7e28 db3d 2c9c 8f3e b769 ae3e 345b d6bf
00000330: 7725 d6bf e5ca d33f cce2 353f 40cd c53f
00000340: 894c a3be 9689 c3be c613 473f ecac 0140
00000350: 03e0 be3f aed6 ae3f f47b 1140 eb7e 32bf
00000360: 9ced a0be 8e45 81bf 3c6c 093e e6d4 ec3f
00000370: 2492 0dbf de21 f6be 2dee 553e 6edd 69bd
00000380: c43c 1f3f 7694 313f 697e 6b3f de59 5b3f
00000390: ea81 093f e11a a53f 1aaf 3e3f d213 243f
000003a0: fe75 333f c239 2a3f 5fed 5e3f d669 0a3f
000003b0: 290c 9a3f 1975 9c3f bb15 1d3f dc9a 1c3f
000003c0: fed0 0b3e d23c 393e 323e a03d 9788 debf
000003d0: 04c5 613f 6ebe ca3d c56d bf3b 2d9f 8b3f
000003e0: def8 063e 2ef2 fdbe cf99 cf3f 9dca 023f
000003f0: beff 803f 1931 c93d 6bfb 81bd 8901 e43f

bias f4 [2]
1.8587723 1.8571074
00000000: 40ec ed3f b2b5 ed3f
