weights_target_net.pth (torch, 172256 bytes, 20 tensors)

weight f4 [16, 3, 5, 5]
000000 73 97 b9 bf 06 f6 ce 3f ec 31 af 3f f0 94 d3 bf
       -1.4499344 1.616883 1.368711 -1.6529827
000010 81 07 6e be 38 e3 4b 40 17 59 7b bf bf 80 44 bf
       -0.2324505 3.1857433 -0.98182815 -0.7675895
000020 bc a6 38 c0 b6 15 d7 3d a3 64 82 be 90 08 48 3f
       -2.8851767 0.10502188 -0.25467405 0.78138065
000030 ac a8 2d bd 4f 03 83 bf c1 42 9e 3f 8a a1 90 bf
       -0.042397186 -1.0235385 1.2364122 -1.1299298
000040 e2 9d d4 be b0 82 3d bf 12 b5 cd bf ae 36 7a bf
       -0.41526705 -0.7402754 -1.6070883 -0.97739685
000050 ac 3e a6 bf 86 8c 3d 3f 0b bb 98 bf 01 fc ec 3e
       -1.2987876 0.74042547 -1.1932081 0.46286014
000060 f5 be a5 3e 34 a1 9a bf 17 4e 9c 3f eb f3 27 3f
       0.3237225 -1.2080445 1.2211331 0.65606564
000070 84 f6 1f c0 ad 7f d1 be 10 b3 42 40 51 db 04 bf
       -2.4994211 -0.4091772 3.042179 -0.5189715
000080 35 d0 a0 be df 2a f7 bf 90 49 07 3f b2 c2 41 bc
       -0.3140885 -1.9309958 0.5284662 -0.011826204
000090 8e 68 bf 3e 15 7c 23 3e f8 9c 83 bf f0 63 0f 3f
       0.37384456 0.15965302 -1.0282278 0.5601187
0000a0 52 41 13 bf 9f 53 03 3e fe df 1a 3e 40 c9 6d bf
       -0.57521546 0.12824868 0.15124509 -0.9288521
0000b0 5e e7 87 be 43 2d 41 bf 33 d9 d3 3e 1c c1 86 bf
       -0.26543707 -0.7545969 0.41376647 -1.0527682
0000c0 5f 35 90 3f be 78 15 3f e0 a2 d3 be 2e 72 26 3f
       1.1266288 0.5838736 -0.413352 0.65017974
0000d0 75 87 03 3f 55 98 09 c0 af f0 f5 be 42 58 36 40
       0.51378566 -2.1499226 -0.4803519 2.8491368
0000e0 30 55 29 bf 3c 7a a8 bd 0e ae 7e bf ef 5f 30 3f
       -0.6614561 -0.08226439 -0.99484336 0.68896383
0000f0 dd 14 4f be 89 0a d5 3e ba 4f 6d 3d c0 da 9d bf
       -0.20222802 0.416096 0.05793736 -1.2332382
000100 54 15 16 3f 62 02 3b bd 4c 3a 98 3e be 15 92 3e
       0.58626294 -0.04565657 0.29731977 0.28532213
000110 64 de 6c bf 30 8f 35 bf 34 d2 75 be 08 3c 38 3f
       -0.9252684 -0.7092161 -0.24005967 0.719666
000120 56 7e 18 bf fc 61 9b 3f f8 ed 52 3f 0c fb 71 bd
       -0.59567773 1.2139277 0.8239436 -0.059077308
000130 d5 84 7f bf 0c 58 76 3f d2 26 29 bf bc 13 9b bf
       -0.9981206 0.962281 -0.6607486 -1.2115397
000140 3f ae 4d bf bb b0 b9 bf 76 61 06 3f 56 2b 2a be
       -0.80344003 -1.4507059 0.52492464 -0.16618094
000150 dd 8c 96 bc b4 7e c5 bf 4b 59 9d bf 0c 8c af bf
       -0.018377716 -1.5429292 -1.2292875 -1.3714614
000160 b3 59 b7 be e5 3e 4b 3e f6 28 90 3f d7 5c 15 3f
       -0.35810623 0.19848211 1.12625 0.5834479
000170 8a 62 8a be 38 0d 92 bf c0 6e 23 3f 47 c1 25 3f
       -0.27028304 -1.1410284 0.63840866 0.6474804
000180 98 ac 37 3e c8 89 dd 3e ca 47 e8 bf fc 7b ac 3f
       0.17936933 0.4326918 -1.8146908 1.3475337
000190 df b0 8d 3e ba 93 8e bf 8e 42 87 3f dd b2 8b be
       0.27674004 -1.1138833 1.0567186 -0.272849
0001a0 14 fe ae bf 71 ae 50 bf 55 9a e0 bf 62 09 25 3f
       -1.3671288 -0.81516176 -1.7547098 0.6446744
0001b0 8d 2a a9 3e 30 a1 33 bf 1e e8 8a bf ce 1e a4 bf
       0.33040276 -0.7016783 -1.0852087 -1.2821901
0001c0 b6 f5 3b bf b5 bb 87 3f 7b a9 fa 3e 8f d4 a1 3f
       -0.734218 1.0604159 0.48957428 1.2642993
0001d0 9d 0f 2b 3f 62 f5 f6 be 47 14 7f bf 50 91 07 bf
       0.668207 -0.48234087 -0.99640316 -0.52956104
0001e0 fa 2d fb 3e 2f 39 32 3f 11 e3 44 be b1 5d 2a c0
       0.49058515 0.69618505 -0.19227244 -2.6619685
0001f0 97 e9 06 be 21 fb b5 3e bb 82 af bf c2 18 42 3f
       -0.13175045 0.3554316 -1.3711771 0.7581903
000200 3c 51 0a be 4b 0f a0 bf 96 cf 75 bf f7 c9 9c bf
       -0.13507551 -1.2504667 -0.96019876 -1.2249135
000210 11 f6 44 3f 79 c5 1d 3f 1c 8d f3 be 57 01 45 bf
       0.7693797 0.61629444 -0.47568595 -0.7695517
000220 24 09 96 bf 7f 52 33 bf 23 f5 87 3f b1 dd d2 3e
       -1.172154 -0.70047754 1.0621685 0.41184762
000230 90 4f 9a 3f ee c7 54 3f 20 6c 48 bf 5c 51 4d bf
       1.205553 0.8311757 -0.78289986 -0.8020227
000240 f1 25 14 3e c2 27 0a 3e 9d b0 2d 3f 16 c7 0d bf
       0.14467598 0.13491729 0.67847615 -0.55381906
000250 68 97 3e c0 ec 4d a6 bd e2 5a 5e bd 32 26 74 3e
       -2.977991 -0.08120331 -0.05428589 0.23842695
000260 4f 51 de 3e a6 43 55 bf 16 66 11 bf f7 bf e4 3f
       0.4342141 -0.8330635 -0.56796396 1.7871083
000270 0b 1e 9c 3f 20 93 94 3f 2c e4 fe bf 8a ca 1d bf
       1.2196668 1.1607399 -1.9913383 -0.61637175
000280 95 df 01 bf 97 4b ca bf 53 cc 48 bf 2c 49 d9 be
       -0.50731784 -1.5804318 -0.78436774 -0.42438638
000290 1e 5c d3 3f 40 23 ff be 96 93 fd 3f 7e 4f 86 bf
       1.6512487 -0.4983158 1.9810665 -1.0493009
0002a0 69 50 c5 bf bf d6 a2 bf d2 af af bf bb c3 97 be
       -1.5415164 -1.2721785 -1.3725531 -0.29641518
0002b0 79 29 ae bf 98 8c 4d 3f b0 e9 25 bf 5b 46 10 3f
       -1.3606406 0.80292654 -0.64809704 0.56357354
0002c0 4a 15 81 3e fd 79 fc 3e 69 2e 4d bf bb b6 88 bf
       0.25211555 0.4931182 -0.8014894 -1.0680765
0002d0 fd b9 c4 3f d0 7a a3 3f be cd 48 3f 38 69 63 bf
       1.5369259 1.2771854 0.7843894 -0.88832426
0002e0 ad d0 60 bd b6 c9 dd be 64 8a bd bf ab 3d 68 bf
       -0.05488651 -0.43317956 -1.4807858 -0.907191
0002f0 4c 1b 46 3f 93 de c0 3e bb 61 12 bf 5e 85 f2 3f
       0.773854 0.3766981 -0.57180375 1.894695
000300 58 ad 22 bf 01 5b 71 bf 20 1d c1 3e b5 36 a8 bf
       -0.6354575 -0.94279486 0.37717533 -1.3141695
000310 25 59 0b bf f6 b5 83 bf d8 17 f7 3f eb 01 41 bf
       -0.544329 -1.0289905 1.9304152 -0.7539355
000320 c7 60 3b 3f e8 d1 b9 bd dd 96 75 3e 60 00 36 bf
       0.73194546 -0.090732396 0.23983331 -0.7109432
000330 0d 37 9b bf 25 be c2 3f 4f af 85 3f e2 12 31 3f
       -1.2126175 1.5214278 1.0444125 0.6916944
000340 14 2a 1d bf f9 52 ce 3e a3 cd 7f bf 23 a0 b8 bf
       -0.6139233 0.40297678 -0.9992315 -1.442387
000350 44 5a 53 bf 7a 50 47 3f 5b c7 d6 3e c9 b8 2b bf
       -0.8255961 0.7785717 0.4194897 -0.67078835
000360 74 3a db 3f 88 72 00 be 76 0f 31 bf 06 31 19 3f
       1.7127213 -0.1254369 -0.69164217 0.5984043
000370 39 21 d7 bf 03 98 52 bf a7 e2 3b bf a9 7e 06 40
       -1.6807014 -0.822632 -0.7339272 2.1014807
000380 7b 3d 05 bf 0c a1 65 3f 86 c7 d4 bf cd da be bf
       -0.52046937 0.89698863 -1.662339 -1.4910523
000390 c8 ca eb be 2d 9a 14 be 76 d0 06 bf 5c 99 26 be
       -0.46053147 -0.14511938 -0.52661836 -0.1626944
0003a0 60 bb 07 c0 3f 08 3f 40 e2 03 f9 bd 38 17 07 bf
       -2.1208115 2.9848783 -0.12158944 -0.52769804
0003b0 cb 72 96 3e fd 57 c0 3e f8 8f f2 3e 27 4c 91 be
       0.29384455 0.3756713 0.47375464 -0.28378412
0003c0 70 41 16 3f 54 a8 b9 bd e3 07 8f bf 82 5a 21 3e
       0.586936 -0.09065309 -1.1174282 0.15757182
0003d0 ec 47 9a bf 2f 87 99 bf 5b d2 05 bf c0 0b 9d 3e
       -1.2053199 -1.199438 -0.522741 0.30673027
0003e0 ab 72 0f 3f 1d d6 aa 3f da ed 31 3f 89 98 c0 bf
       0.56034344 1.3346592 0.6950356 -1.504655
0003f0 2c a3 a5 bf 2b 04 57 be 5d 12 f6 3d 05 7a 0a bf
       -1.2940421 -0.20997684 0.12015221 -0.5409244

bias f4 [16]
000000 92 af 3c bf 44 5f fb 3d 42 2b cd bf e8 35 42 bf
       -0.737054 0.1227403 -1.6028826 -0.75863504
000010 f9 db 1e 3e e6 85 c6 3f d2 c7 23 3f 8b 81 df bf
       0.155136 1.5509613 0.63976777 -1.7461408
000020 ef f7 b6 3e 96 81 a1 be c6 94 89 bd fb 76 93 bf
       0.35736033 -0.3154418 -0.067178294 -1.1520685
000030 46 53 b0 bf 64 3e 71 3d d0 29 78 bf d0 63 a3 be
       -1.3775413 0.05889739 -0.969388 -0.31912088

weight f4 [16]
000000 3d 9f 1c 3f 36 ff 49 3f 67 e8 db 3f 79 05 08 40
       0.6118048 0.78905046 1.7180299 2.125334
000010 ed fb 6c 3f 7f 10 1d 40 db d7 be 3f ad c7 24 3f
       0.9257191 2.4541318 1.4909624 0.6436718
000020 3b 2f eb 3e f0 a2 5c 3f a5 8a bc 3f 51 84 ca 3f
       0.4593447 0.8618612 1.4729811 1.582163
000030 01 97 53 3f 91 10 7c 3f 3b 77 0b 40 c1 56 9b 3f
       0.8265229 0.9846278 2.1791523 1.213585

bias f4 [16]
000000 4b 54 2b 3f e5 be 45 bf 8f 27 2d 3f 38 1e e2 3f
       0.66925496 -0.77244407 0.67638487 1.7665472
000010 97 b3 75 be 68 e0 49 bd 21 3a 49 be a4 99 d2 be
       -0.2399429 -0.049286276 -0.1965108 -0.41132843
000020 b2 ee 54 3f 9f db a8 3f 1e 6d 4b bf b9 d6 8a be
       0.8317672 1.3192023 -0.79463375 -0.27116945
000030 0f f9 76 3e 14 e2 7f bf 72 cc 5d 3f be a5 67 3f
       0.24118446 -0.9995434 0.86640084 0.9048728

running_mean f4 [16]
000000 31 65 3d bf 46 27 14 3e f8 4f c9 bf ca fb 43 bf
       -0.7398253 0.14468107 -1.572753 -0.76556075
000010 02 16 24 3e 85 8b c8 3f fd 53 24 3f 0e 93 dd bf
       0.1602402 1.5667578 0.64190656 -1.7310503
000020 e5 fd c3 3e d0 d4 aa be b3 d2 34 bd be d1 8f bf
       0.38279644 -0.33365488 -0.04414625 -1.1235883
000030 31 29 af bf 74 93 97 3d 4d 5a 77 bf e6 ee a4 be
       -1.3684446 0.07401171 -0.96622163 -0.32213515

running_var f4 [16]
000000 81 10 de 3d e4 c1 53 3d c1 64 a5 3c c4 0b 90 3c
       0.108429916 0.05169858 0.020189645 0.017583735
000010 ce 04 37 3d 65 d1 d9 3b 77 b3 1f 3d 89 d0 12 3e
       0.044682316 0.006647276 0.03898951 0.14337362
000020 cb be 85 3d de 4c 89 3d f2 a4 94 3d 5b 62 e4 3c
       0.065305315 0.067041144 0.07258023 0.02787893
000030 fe d2 0f 3d a2 f0 3d 3e db da 53 3c b9 cc 55 3d
       0.035113327 0.18548825 0.012930597 0.052197192

weight f4 [32, 16, 5, 5]
000000 72 3e 3b 3f d7 0e de 3d 70 e7 88 3e d0 95 b5 be
       0.7314216 0.10842674 0.26739073 -0.3546586
000010 cd d1 81 bf 91 a6 7e 3f 6f 40 99 3d ae de ae 3f
       -1.0142151 0.9947291 0.07482993 1.3661706
000020 f0 9b 1d c0 3d ca 5c be 09 e3 94 3f ad 11 97 bf
       -2.4626427 -0.21561523 1.1631786 -1.1802269
000030 7d e9 4e 3f 92 11 50 c0 c0 cf a4 be 23 62 de 3e
       0.80825025 -3.2510724 -0.3218975 0.43434247
000040 10 11 a0 bf 31 84 0f bf 80 10 87 be e2 f6 25 3e
       -1.2505207 -0.56061083 -0.26379776 0.1620746
000050 db 38 2a be 82 3b 88 bf 16 06 ba 3e 6a 69 45 bf
       -0.16623251 -1.064316 0.36332768 -0.77113974
000060 50 b6 46 bd 6d d1 ab 3f 24 56 c3 bf 99 a5 d2 3f
       -0.04851371 1.3423287 -1.5260663 1.6456786
000070 ac 86 0d c0 4e d6 69 bf 89 89 99 3f 06 2e 1e bf
       -2.2113447 -0.9134263 1.1995097 -0.61788976
000080 d6 3f bc bd c0 08 1c 3f 1d 4c 3e be d3 46 9c 3f
       -0.09191863 0.6095085 -0.18583722 1.2209114
000090 8c 54 87 bf d7 59 8b 3d cd a9 aa 3e 41 1b 74 3f
       -1.0572677 0.06804245 0.33332673 0.95354086
0000a0 e3 7c 13 3f 03 f8 20 bf f7 19 55 3f 07 85 b7 be
       0.57612437 -0.62878436 0.83242744 -0.3584368
0000b0 cb 6c 77 3e a4 2f a6 3f af 92 b4 bf 75 5a 12 3f
       0.24162595 1.2983289 -1.4107264 0.57169276
0000c0 93 67 6c 3f e1 60 d5 3f e3 c0 cd be 5a 3b 2c bf
       0.9234554 1.667019 -0.40186223 -0.67278063
0000d0 26 ca f9 be 8c f5 c1 3f 91 4b ce bf 6d 47 15 c0
       -0.4878704 1.515306 -1.6116811 -2.3324845
0000e0 9e cc 6c bd 34 ed 31 bf a4 da 39 bf 0f f3 28 3f
       -0.057812326 -0.6950257 -0.72599244 0.6599588
0000f0 aa bb 17 bf e4 69 28 c0 a8 cd 19 bf eb 32 ac bf
       -0.5927073 -2.631463 -0.6007943 -1.3453039
000100 f3 a1 ea 3d 99 92 15 3e 75 b8 0d 3f bb 0b fc be
       0.114566706 0.14606704 0.55359584 -0.492277
000110 f7 48 a4 be 52 75 0c bf 8d a1 00 3f 05 7e 03 bf
       -0.32086918 -0.54866517 0.50246507 -0.51364166
000120 a1 d2 41 bf 31 bb 04 c0 81 f4 94 bf 1e 7a 43 3e
       -0.7571202 -2.0739253 -1.1637117 0.19089553
000130 f3 45 d4 3e 4b 07 34 c0 4e 7b e6 3b 3c bd 94 bf
       0.41459617 -2.8129451 0.007033742 -1.162025
000140 3e 50 1b 3f e4 14 bf bf c2 bd 1f 3f 30 03 37 bf
       0.60669315 -1.492825 0.6239892 -0.7148924
000150 bb 1f be be 56 bd 20 c0 9b f0 15 40 44 ea 8a bf
       -0.37133583 -2.5115561 2.3428104 -1.0852742
000160 7a 85 91 3c 3b 08 5a bf 20 c6 92 bf 40 1e 05 bf
       0.017763842 -0.8516881 -1.1466713 -0.5199928
000170 a4 c1 94 3f 5b ca 94 3f 39 2e 14 3d b6 de a6 bf
       1.1621594 1.1624254 0.036176894 -1.3036716
000180 63 2a c7 3f 69 a4 96 bf 77 a8 b5 3f 09 04 56 3f
       1.555981 -1.1768924 1.4192036 0.8359991
000190 86 6a 4e bf 60 63 fc be 00 0b 59 3c 26 48 cd be
       -0.8063129 -0.49294567 0.0132472515 -0.40094107
0001a0 13 5b 3d be b4 0c df bf dc 09 8d be 9c 74 82 be
       -0.18491773 -1.7425752 -0.27546585 -0.2547959
0001b0 99 e6 01 c0 63 90 82 3e b5 a0 6e bf 9b b5 c5 be
       -2.0296996 0.25500783 -0.9321397 -0.38615116
0001c0 3a d6 c2 bd f1 ac 0f c0 4e 5e 0a 3e 32 6c ca 3f
       -0.09513517 -2.2449305 0.13512537 1.5814269
0001d0 92 f8 e2 bf 2b 2e 7e be 67 3f 34 3f 8c 4d 0b 3f
       -1.7732108 -0.24822299 0.70409244 0.544152
0001e0 49 d0 d8 3f 50 a8 5d 3f ca 42 80 3d d7 e1 75 3e
       1.6938564 0.8658495 0.06262739 0.24011932
0001f0 94 cf 7f 3e e5 d9 c9 bf 0b d1 ef bf 20 f0 ba 3e
       0.24981529 -1.5769621 -1.873567 0.36511326
000200 a1 58 ac bf ad 53 08 3e 47 03 06 c0 a7 2d 38 bf
       -1.3464547 0.1331317 -2.09395 -0.7194466
000210 5f 98 ba 3e cf 29 4f bf 76 84 01 bf 27 5f a8 3d
       0.36444375 -0.8092317 -0.50592744 0.08221274
000220 9c e5 c0 3c 43 be 1d be 70 9c b6 bf a2 f6 a1 bf
       0.023546986 -0.1540461 -1.4266491 -1.2653391
000230 c0 bf 46 3e d0 1c 82 3a 55 ff 07 3f 8a 94 1b be
       0.19409084 0.00099268 0.5312398 -0.15193382
000240 94 5e 42 3b 71 8b 9e bd 97 06 0b c0 7c cf 6e 3f
       0.0029658424 -0.0774144 -2.1722772 0.93285346
000250 d0 17 14 3e c2 0e c0 be e2 6c b2 bf 2c 78 da bf
       0.14462209 -0.3751126 -1.3939478 -1.7067924
000260 e7 08 80 be 93 17 3f bf bc 8d ae bf 03 17 09 bf
       -0.25006792 -0.74645346 -1.3637004 -0.5355074
000270 b0 a1 1d be 88 eb 09 3e 7a f2 aa be 82 a5 32 be
       -0.1539371 0.13468754 -0.3338812 -0.17445949
000280 90 4b 33 c0 04 00 09 bf b7 a8 e6 be c7 0f b9 be
       -2.801487 -0.5351565 -0.45050594 -0.3614485
000290 ad 3f 5a 3f 62 e2 3b c0 a2 34 08 c0 b7 c9 50 3f
       0.8525341 -2.9356923 -2.1282125 0.8155779
0002a0 ee 73 8c 3f 49 a0 94 3e d5 0c 02 c0 89 ad 99 bf
       1.0972879 0.29028538 -2.0320332 -1.2006084
0002b0 a6 dc 88 3e f5 d0 cf be 99 2c 0d 3f a0 e2 08 bf
       0.2673084 -0.4058911 0.55146176 -0.534708
0002c0 9a 44 97 bf a3 19 3e 40 5d 14 2c bf cf 3b c8 be
       -1.181781 2.9703147 -0.6721857 -0.3910813
0002d0 ba 97 ae 3e ac 0b a4 bf 85 6f a6 3f 85 61 e3 be
       0.34100133 -1.2816062 1.3002783 -0.4441034
0002e0 54 9c 49 bd e9 cf 8b bf 71 13 25 c0 92 42 b8 3f
       -0.04922135 -1.0922824 -2.5793116 1.4395316
0002f0 06 4d 59 3d c8 b2 81 3d e7 6d cf bf ab 27 c9 bf
       0.05305197 0.06332928 -1.6205415 -1.5715231
000300 b5 fe 4d 3f 01 dc 84 3c 19 31 c4 3e 16 c0 8b bf
       0.8046678 0.016218187 0.3831871 -1.0917995
000310 74 5d 4f bf 94 0d 2e 3f 52 ce 93 bf 7a 48 de be
       -0.81001973 0.6798947 -1.1547339 -0.4341467
000320 38 b3 0b c0 e3 93 ba 3d 27 75 d0 be e8 fd e8 3c
       -2.1828136 0.091102384 -0.4071438 0.028441384
000330 fa 82 8f bf 08 e0 8f be 34 93 de bf ca e7 23 bf
       -1.1211846 -0.2810061 -1.7388673 -0.6402556
000340 eb 5f e9 3e d5 b3 27 3f 6d c2 20 bf 73 98 e6 bc
       0.45580992 0.65508777 -0.6279667 -0.028148865
000350 f3 0b 8e bf af b1 24 bf 65 c8 d1 be 3f 69 81 bf
       -1.1097397 -0.64333624 -0.409732 -1.0110244
000360 e9 03 97 bf 21 c2 9a 3f 13 0c 37 bf 42 b4 45 3e
       -1.1798068 1.2090493 -0.715028 0.19307044
000370 85 17 c5 bf 4d 04 27 c0 b3 67 f4 3f b7 ce 51 bf
       -1.5397803 -2.6096375 1.9094146 -0.81956047
000380 a2 e6 b8 bd eb 8f 28 bf d5 60 a6 bc fb 83 15 40
       -0.09028365 -0.658446 -0.020309845 2.3361804
000390 73 38 8b be 5c 62 fe be 4e 9e d9 3d 85 eb 9b 3f
       -0.27191505 -0.49684417 0.10625897 1.218125
0003a0 bd 24 68 3f ba 89 e1 bf 83 3f 92 3f 92 f8 5e 3f
       0.9068106 -1.7620156 1.1425632 0.8709804
0003b0 7c 47 bd be ff 5e 53 3e 7c 7d 8a bf d2 32 6f 3f
       -0.369686 0.20641707 -1.0819545 0.9343692
0003c0 89 12 86 3e 6b 03 47 be b8 31 be be 6c 20 ff bd
       0.26186016 -0.19434898 -0.37147307 -0.12457356
0003d0 70 e1 43 3f 59 88 a6 be a3 9c 3c bf ef 29 1a bf
       0.76515865 -0.325259 -0.7367651 -0.60220236
0003e0 a7 e6 43 bf 21 92 72 be 67 4c 2b c0 96 d2 e8 3f
       -0.7652382 -0.23688556 -2.6765382 1.8189266
0003f0 09 a5 02 be 86 30 a8 bf 0c 44 b1 bf bf 73 31 c0
       -0.12758268 -1.3139808 -1.3848891 -2.7726896

bias f4 [32]
000000 11 b3 1c 3f 79 a2 41 3f 2f 91 c2 bd 7c 38 46 bf
       0.61210734 0.7563854 -0.09500348 -0.7742994
000010 4c da da 3c cf a6 89 be 94 5c d6 3e 1f 59 03 3f
       0.02671542 -0.26885077 0.41867507 0.51307863
000020 60 6a 83 3e 60 bb c7 be ef 0b 55 bf 78 55 8e bf
       0.25667095 -0.39010143 -0.83221334 -1.1119833
000030 1d 86 fb 3e a1 88 03 3d ee d8 85 be 46 87 df bd
       0.49125758 0.03211272 -0.26142067 -0.10914473
000040 e9 4f dd bd 75 81 8d 3e c9 68 2d bf a8 74 07 bf
       -0.10806257 0.2763783 -0.67738014 -0.5291238
000050 a7 89 99 be fa f9 2a 3f 25 0c 33 3e 82 70 97 bd
       -0.29987833 0.66787684 0.17485102 -0.07394506
000060 0e 9d b1 be ab b1 8d 3e 49 2c b5 3f 73 47 b5 bf
       -0.34690136 0.27674612 1.415414 -1.416243
000070 09 78 bb be d0 7b c3 be 54 93 71 3f ba 15 83 bf
       -0.36615017 -0.381804 0.9436543 -1.0241005

weight f4 [32]
000000 67 95 3b 40 a2 ed 0b 40 2c f5 52 3f f1 0e 11 40
       2.9309938 2.186379 0.8240535 2.266537
000010 48 97 c5 3f d8 c1 27 3f f4 98 8d 3f 00 99 d5 3a
       1.5436792 0.6553016 1.1062303 0.0016296208
000020 70 f8 11 40 3c 85 00 40 d2 47 34 40 f3 60 1f 40
       2.2807884 2.008132 2.8168836 2.4902923
000030 d2 a6 31 40 22 09 1b 3f 0a ae 07 3f 0d 5f 5a 40
       2.775807 0.6056081 0.5299994 3.4120514
000040 da 58 66 3e 00 f5 13 40 80 03 23 40 e0 a1 15 3f
       0.22494832 2.3118286 2.5470886 0.58450127
000050 bf 2f 35 40 6f e6 0a 40 65 7f 39 40 44 cf 42 40
       2.8310392 2.1703146 2.8984005 3.0439005
000060 45 77 16 40 3f f8 e9 3f d7 68 d3 3f 88 94 51 40
       2.3510296 1.8278884 1.651637 3.2746906
000070 f0 8b 3e 40 02 b6 47 3f a9 90 35 40 a0 47 02 40
       2.977291 0.78012097 2.8369544 2.0356216

bias f4 [32]
000000 da 0a ca bd d6 e7 01 be 71 fb 82 bf 4a a0 24 bf
       -0.09865351 -0.12686095 -1.0232984 -0.6430708
000010 87 6d 78 be 13 c0 36 bf 16 35 5f bf 8e 3a dc bc
       -0.24260531 -0.7138683 -0.8719038 -0.02688339
000020 3c f6 69 be 3b 11 3f 3f 62 af 84 be 6d 3c 19 3e
       -0.22847837 0.74635667 -0.25915056 0.14964457
000030 b2 6e 14 bf 9c fd db be 9e 98 ca be aa 8a 82 bc
       -0.5798141 -0.42966926 -0.39569563 -0.01593526
000040 74 20 69 bf 1b 9a 85 bb e1 24 9b 3e be 28 54 bf
       -0.91065145 -0.0040772087 0.30301574 -0.8287467
000050 85 aa 88 be 79 3f 14 be b4 c7 d3 3c ae f2 ab 3e
       -0.26692596 -0.14477338 0.025852062 0.33583587
000060 b8 5f c6 3d 47 ea 2a bf e9 cd 04 be d3 07 97 bd
       0.09686226 -0.6676373 -0.12969173 -0.07374539
000070 5e 18 1e bf 50 d3 ab bf b2 13 3c be ed 6d 00 3f
       -0.6175593 -1.3423862 -0.18366888 0.50167733

running_mean f4 [32]
000000 71 12 97 c2 3d 62 8d c2 ff 24 66 42 d6 33 08 c2
       -75.53602 -70.69187 57.53613 -34.05062
000010 1e 7e 5c c2 02 c8 18 42 18 68 29 c2 7a 5c 10 c1
       -55.12316 38.19532 -42.351654 -9.022577
000020 7c f1 b6 c2 c1 3f 93 c2 f8 0f 82 c2 fe 33 97 c2
       -91.47165 -73.62452 -65.03119 -75.60155
000030 eb bd 8c c2 3f ae 66 c2 34 ad 73 42 8a 93 8e c2
       -70.37093 -57.670162 60.919144 -71.28816
000040 5f 23 87 c2 d5 aa d7 c2 e7 bf 92 c2 d8 c9 32 42
       -67.569084 -107.83366 -73.37481 44.697113
000050 a7 f0 1b c2 18 2c a9 c2 d3 b7 97 c2 f0 b3 3c c2
       -38.985012 -84.58612 -75.85903 -47.17572
000060 09 69 a0 c2 87 49 57 c2 a2 7a 8a c2 3f 16 4c c2
       -80.20515 -53.821804 -69.23952 -51.021725
000070 3e 36 61 c2 c7 7c a8 42 bc b1 9e c2 e4 a7 92 c2
       -56.30297 84.243706 -79.34714 -73.32791

running_var f4 [32]
000000 d2 5d 3e 45 61 18 0b 45 39 a4 c0 44 19 18 9d 44
       3045.8638 2225.5237 1541.132 1256.753
000010 d9 8d 56 44 8f ba b1 44 67 40 cf 44 56 47 8f 44
       858.2164 1421.83 1658.0126 1146.2292
000020 5d be 1e 45 58 6b 30 45 48 3e b9 44 9a 50 37 45
       2539.8977 2822.709 1481.9463 2933.0376
000030 b8 33 04 45 93 6c 83 44 b0 c4 06 45 78 e4 04 45
       2115.2324 1051.393 2156.293 2126.2793
000040 a8 d8 ed 44 65 75 b2 45 49 e3 21 45 7b 55 04 45
       1902.7705 5710.6743 2590.2053 2117.3425
000050 82 2d d7 44 43 86 ad 44 92 dd 3c 45 30 67 e8 44
       1721.4221 1388.1957 3021.8481 1859.2246
000060 43 a4 04 45 fa 62 ff 44 77 ae ff 44 5a ab ee 44
       2122.2664 2043.093 2045.452 1909.3547
000070 04 c0 1c 45 09 cb 11 45 98 2b 25 45 54 11 77 45
       2508.001 2332.6897 2642.7246 3953.083

weight f4 [32, 32, 5, 5]
000000 a0 cd bf bf de eb 0d 3f 11 28 6c be 6d bf be 3d
       -1.4984627 0.5543803 -0.23062159 0.09313855
000010 20 ad 6f bf 5b 24 bc 3e bd 82 2b 3f 3b 17 5c 3e
       -0.9362354 0.36746487 0.66996366 0.21493237
000020 cd d7 1d 3f b2 aa 1c 3f 2b 81 62 bf 6d 00 9f bf
       0.6165741 0.6119796 -0.88478345 -1.2422005
000030 dc 86 05 c0 11 dc 7e 3c 96 42 96 3e ee 7e cb 3f
       -2.0863562 0.015555398 0.29347676 1.5898111
000040 0b 5a cc be 52 ca 8d 3e ae 26 e5 3d 65 be 04 3f
       -0.39912447 0.2769342 0.11189018 0.5185302
000050 9d 9b 4c 3e f0 46 18 bf f7 e4 32 bf e4 8c 90 3f
       0.19981237 -0.5948324 -0.6988062 1.1292996
000060 b8 22 cd 3e 14 6e 0d bd 13 20 e9 bd b1 73 9f 3e
       0.4006555 -0.034528807 -0.11383071 0.31142953
000070 b7 12 c5 3e 67 d2 a3 3d 41 09 55 bf 7e 75 30 3f
       0.3849084 0.079991154 -0.83217245 0.6892928
000080 c8 6c 10 be 46 8c a5 3f 51 4a 50 bf 8d 5f 29 3e
       -0.14103997 1.2933433 -0.813634 0.16540356
000090 ad 2b 51 bf 3d cd e5 bf 20 7c ee be f3 42 c5 3d
       -0.8170727 -1.7953259 -0.46579075 0.0963191
0000a0 08 bf 13 3f f8 25 d9 be 5a 9a a6 3f 48 ea 05 3f
       0.57713366 -0.4241178 1.3015854 0.5231061
0000b0 ed 1a 1e 3e a3 6f 7f 3d 00 ce 1b c0 dd 33 80 bc
       0.15439959 0.062362324 -2.4344482 -0.01564973
0000c0 e4 a7 57 bd e5 d2 8b bf e0 95 e3 be 9e c9 6e 3f
       -0.052650347 -1.0923735 -0.44450283 0.93276393
0000d0 7f ca 41 3f db 65 81 3f a4 43 0e 40 90 2a 85 bf
       0.7569961 1.0109209 2.2228785 -1.0403614
0000e0 c3 a4 9b be 93 b9 93 3e 1d d0 ba be c4 4e e8 3f
       -0.3039914 0.2885252 -0.36486903 1.8149037
0000f0 de 65 b4 be 2f 5d 98 be 0f c3 10 3f 99 df 8d bf
       -0.35233968 -0.29758593 0.56547636 -1.1083862
000100 9e 0c 4d 3f f8 af 7f bf 00 73 e0 bf 6c bc 87 be
       0.8009738 -0.9987788 -1.7535095 -0.26510942
000110 24 13 97 bf 25 5d 0b 3f d9 0f 7a bf b5 8b f9 bf
       -1.1802716 0.54439 -0.9768043 -1.949576
000120 ab 8f 9e 3e 45 d2 70 3f e3 28 00 40 0d d0 16 c0
       0.30968985 0.94070846 2.0024955 -2.3564484
000130 ac 09 0c bd 42 1c 36 3f c5 e5 ca 3d 39 2f 83 3f
       -0.03418891 0.7113687 0.09907106 1.0248786
000140 b7 82 36 3e 1b 48 8c bf fe 0b 0c 3f cf 14 9b bf
       0.17823301 -1.0959505 0.547058 -1.2115725
000150 f4 01 9d 3f fa 67 78 bf 20 2d 97 be b7 c7 50 be
       1.2266221 -0.97033656 -0.29526615 -0.20388685
000160 72 c5 5e bf 9e b4 af 3f 2a ef 52 c0 8d 69 ce 3f
       -0.8702003 1.3726995 -3.2958474 1.6125962
000170 94 5b cb 3e cf 48 3c bf 7f a2 7f 3f 49 8f 2f bf
       0.39718306 -0.735486 0.99857324 -0.6857801
000180 9f 5a 88 bf 00 79 d9 3f ea 9f 40 bf a7 a1 cc be
       -1.0652655 1.6990051 -0.7524401 -0.3996708
000190 1c ab b9 bf 01 4d 46 bf d6 cd 74 3c cf 92 3b be
       -1.4505343 -0.7746125 0.014941653 -0.18317722
0001a0 9b 84 a1 bf 4e 96 5d bf 08 8e 89 3a 64 91 29 3f
       -1.2618593 -0.8655747 0.0010494599 0.66237473
0001b0 a3 2c 09 bf 04 e9 dd 3e e7 a3 3e bf df 2a b5 bd
       -0.53583735 0.4334184 -0.74468845 -0.08846068
0001c0 93 15 1a 3f 40 a1 ce bf 9b a4 2f bf e0 75 e8 3d
       0.6018917 -1.614296 -0.68610543 0.11350608
0001d0 2e 4d 78 3f b4 c3 94 bd 9e c3 d5 bf bf 83 3c 3f
       0.96992767 -0.0726389 -1.6700323 0.7363853
0001e0 98 6b f0 3d 5b bb e9 bf 28 7e 6f 3f 2e 18 ea 3d
       0.11739272 -1.8260301 0.93551874 0.11430393
0001f0 c2 a9 dd 3f c9 df ad bd 91 b9 d0 3f 74 fe b0 3e
       1.7317431 -0.08489949 1.630663 0.34569132
000200 28 f6 ad 3e c3 ba c5 3f 39 14 80 bf 23 24 3d bf
       0.33976865 1.544762 -1.0006171 -0.73883265
000210 4f 2d 45 3e 09 17 6c bf 79 67 e9 3f 4a cc a7 be
       0.19255565 -0.9222265 1.8234702 -0.32773048
000220 37 a0 88 bf 4e ce 1c 3f 18 50 7c bd 47 a8 d7 3f
       -1.0673894 0.61252296 -0.06159982 1.6848229
000230 f7 da c2 be cf 23 c2 bf 22 16 9d 3e fb d0 db 3d
       -0.38057682 -1.5167178 0.30680948 0.10733219
000240 bd d1 4a 3e 4b 6d ac 3e 25 9a 4b bf 1e f7 20 bf
       0.19806571 0.33677134 -0.7953208 -0.6287707
000250 ec f8 0a bf a5 38 89 be 75 da a1 3f f8 6b 51 3e
       -0.54286075 -0.2680103 1.2644793 0.20451343
000260 e8 d5 90 3f e5 e8 e9 3d 05 fd 08 3f 00 40 90 be
       1.1315279 0.11421374 0.5351108 -0.28173828
000270 58 a6 16 bf 5f b5 81 3f 74 d3 b0 be 4c e3 be 3f
       -0.5884757 1.0133475 -0.34536326 1.4913116
000280 99 6e 33 bf ee 1e 43 3e d8 3a ce bf cc 0a 47 bf
       -0.70090634 0.19054767 -1.6111708 -0.7775085
000290 2d 5c 42 3d 70 42 9f bf b3 7b a0 3e 7c 3e 0d 3e
       0.047451187 -1.244215 0.31344375 0.13793367
0002a0 49 5d a2 be 07 9f 50 3f de b0 b7 3e cc d8 41 c0
       -0.31711796 0.81492656 0.35877126 -3.0288572
0002b0 b1 83 e5 3e 18 64 37 bf aa c5 26 be c8 2a 13 3f
       0.44827035 -0.71637106 -0.1628634 0.57487154
0002c0 99 8f 7a 3f e3 f2 2d 3f ea 88 c4 be 82 48 31 3e
       0.9787536 0.6794874 -0.38385707 0.17312816
0002d0 96 35 e3 3d c8 42 89 be f6 a8 48 3c 05 97 4c be
       0.11094205 -0.26808763 0.012247315 -0.19979484
0002e0 d7 1d 26 3f e0 41 dc 3e 6c 11 4c bf 6d 59 86 be
       0.6488928 0.4301901 -0.79714084 -0.262401
0002f0 c9 7d 00 be 5a dc 22 bf 5e 6d 71 bf f1 25 d4 3e
       -0.12547983 -0.6361748 -0.94307506 0.41435197
000300 b8 20 79 3e 1a 0e 95 be d5 c4 c9 be 41 9f b7 3f
       0.24328887 -0.2911232 -0.39407983 1.4345475
000310 41 f0 26 bf b1 1b 61 bf 92 d4 a2 3e 9c 3e 36 3f
       -0.6521035 -0.8793288 0.31802803 0.71189284
000320 73 da e7 3f 10 0c 49 bf 0e 16 bf bf 54 1a 30 3f
       1.811354 -0.7853403 -1.4928606 0.68790174
000330 2e 4e 17 3f 02 1c 0a 40 7d b5 f6 3e dc 38 be bf
       0.5910367 2.1579595 0.4818534 -1.4861102
000340 f6 e0 9e 3f cf e4 58 3f 47 35 4d 3d d6 59 5d 3f
       1.2412403 0.84724134 0.050099637 0.86465204
000350 18 e0 2d c0 8d 44 2b 3f d1 77 ac 3f 10 f5 af 3e
       -2.7168026 0.66901475 1.3474065 0.34366655
000360 4f 62 f6 bf 61 06 89 3f b1 4f 04 3f 75 a7 a4 bf
       -1.9248751 1.0705072 0.516841 -1.2863604
000370 d5 e6 75 3f 5e 85 69 bf b4 55 6b bf 14 38 71 3e
       0.96055347 -0.9121913 -0.9192765 0.23556548
000380 ca e0 1d be 93 d5 9e bf 13 d1 26 3e 0d b4 99 bf
       -0.15417781 -1.2408928 0.16290693 -1.2008072
000390 8f 51 38 3f 18 e2 c9 bd 57 1a 1c be 67 12 b9 bf
       0.7199945 -0.09857577 -0.15244423 -1.4458741
0003a0 ec 8b 24 be fa f9 0f bd 8c 76 dd 3e 97 97 0b 3e
       -0.16069001 -0.035150506 0.43254507 0.13632046
0003b0 73 6b f8 be d4 34 31 bf d5 7c 97 3f 36 48 05 3f
       -0.48519477 -0.69221234 1.1834971 0.5206331
0003c0 1e 9d ab 3f 93 13 95 be 8c ba d2 3f 90 3a 54 3f
       1.3407323 -0.29116496 1.646318 0.8290186
0003d0 8b 37 3e 3e 4b ca 2b 3f 0d 08 aa 3d 75 1c 5a be
       0.18575875 0.6710555 0.08302317 -0.21299918
0003e0 9c c1 0b 3f a7 11 f3 3e 14 05 31 3f 5b f2 0f 3f
       0.545923 0.47474405 0.69148374 0.5622918
0003f0 57 5a a9 3e 5f fb a1 3f 86 56 8e 3e 37 22 66 3e
       0.33076736 1.2654837 0.27800387 0.2247399

bias f4 [32]
000000 b2 24 38 3e e7 9d 20 bf 2e 0f 19 bd 46 7a 0f 3d
       0.17982748 -0.6274094 -0.037367992 0.03502872
000010 78 b9 d1 bd 04 ab ac 3e 61 1a f5 3c 94 92 0a bf
       -0.102404535 0.33724225 0.029919805 -0.5412991
000020 86 8e 26 bf 5b 62 e2 bc 23 26 ef 3c 68 ad d4 3e
       -0.65061224 -0.02763479 0.02919299 0.41538548
000030 36 74 17 3f b0 4a 10 3f 68 85 78 bf 03 fc b4 bd
       0.591617 0.56363964 -0.9707856 -0.0883713
000040 21 49 7e bc f2 ac 4c be 88 53 a1 3e 71 41 b7 3c
       -0.015520365 -0.19987848 0.31509042 0.022370072
000050 6d ea a3 3d 40 56 d3 be 4d 92 f9 bd 40 b2 0d bd
       0.080036975 -0.4127674 -0.12186108 -0.03459382
000060 72 dd a3 bb 51 ff e9 3d 15 29 d8 bc f1 14 14 3f
       -0.0050007636 0.11425651 -0.026386777 0.57844454
000070 ba fe a6 be ee 5a 71 3b 86 01 34 bd f0 c2 7a 3e
       -0.32616216 0.003682788 -0.043946765 0.24488425

weight f4 [32]
000000 41 20 4d 3f 6b 45 fe 3e 94 d7 e1 3e 32 ca 74 3e
       0.8012734 0.49662337 0.44109786 0.23905256
000010 87 d9 03 3f 06 6f b6 3f 9c 37 8e 3e 52 d0 78 3f
       0.51503795 1.4252632 0.27776802 0.9719287
000020 0a 46 a1 3f 9d bb bd 3e b7 c8 ca 3e 63 63 bc 3f
       1.2599499 0.370572 0.39606258 1.471783
000030 ac 32 ee 3f 79 87 be 3f 9a 96 ba 3f 53 97 af 3f
       1.8609214 1.4885093 1.457721 1.3718055
000040 20 80 a9 3e da 99 bd 3f 33 11 d0 3f 1d ea b3 3e
       0.33105564 1.4812577 1.6255249 0.35139552
000050 a8 7b b1 3f 36 14 6b 3f 53 62 93 3f 48 2a a6 3e
       1.3865862 0.91827714 1.1514381 0.32454133
000060 ad ca 3e 3f b8 54 1f 3f 93 76 ba 3e 2d 5a 07 40
       0.7452801 0.62238646 0.3641859 2.114879
000070 63 27 96 3f 7f 26 8a 3e 61 7b 9a 3e 51 33 f0 3f
       1.173077 0.26982495 0.30172256 1.876566

bias f4 [32]
000000 75 a5 96 bf 8c df 42 bf f2 53 30 bf 70 d2 2d bf
       -1.1769243 -0.76122355 -0.6887809 -0.6789923
000010 7c ab 54 bf c7 d3 54 bf a8 7e 54 bf e1 a9 67 bf
       -0.83074164 -0.83135647 -0.8300576 -0.9049359
000020 24 06 ea bf 47 79 0a bf 9a 6d 2b bf ba 2e c1 bf
       -1.8283124 -0.54091305 -0.66964114 -1.5092385
000030 44 af 96 bf 34 9c 89 bf f9 96 56 3f 28 5c cb 3d
       -1.1772237 -1.0750794 0.83824116 0.09929687
000040 33 0f 2a bf e7 64 b8 bf c0 bc 57 3f c7 d7 31 bf
       -0.6642944 -1.4405793 0.84272385 -0.69469875
000050 c4 8b eb 3e aa fc db bc f6 92 88 bf 4b dc 22 bf
       0.4600507 -0.026853878 -1.0669849 -0.6361739
000060 63 d1 bd bf 7c 16 cc bf bb 69 24 bf 0a 30 c1 bf
       -1.4829525 -1.5944362 -0.6422383 -1.5092785
000070 0d bc a5 bf e0 00 2c bf ae 9e 69 bf 47 e5 6e 3f
       -1.2948014 -0.67188835 -0.9125775 0.933186

running_mean f4 [32]
000000 8f 91 10 42 2d f0 f2 c1 b0 ab 34 42 16 9f 8d 42
       36.142147 -30.367273 45.167664 70.810715
000010 3a 87 3a 42 07 73 b0 c1 f3 6a 99 42 6b f4 9a 42
       46.632057 -22.056166 76.708885 77.47738
000020 92 a2 1b 41 29 25 6d 40 66 37 ee 41 9b 53 a8 42
       9.72719 3.705393 29.77705 84.16329
000030 29 aa 44 c1 61 02 84 42 7c 4f e1 c1 9c 65 cd c2
       -12.291543 66.00465 -28.16381 -102.698456
000040 d3 a5 0d c1 13 c7 a6 42 30 05 fb 42 a5 3a b5 41
       -8.852984 83.38882 125.51013 22.653635
000050 ac df 2f c3 62 57 9a c2 ba 59 1d 42 d4 7b 1f 42
       -175.87372 -77.17067 39.337624 39.870926
000060 fd c1 fd 42 cd 3d 05 42 39 4b 4f 41 c5 fc 2c 41
       126.87888 33.310352 12.955865 10.811711
000070 a5 3f 89 bf 5e c8 9b 42 c1 55 ad 42 79 01 98 42
       -1.0722548 77.89134 86.66749 76.00288

running_var f4 [32]
000000 af 48 c8 43 ee 78 ed 43 f1 18 7f 44 ae de 3b 44
       400.56784 474.94476 1020.3897 751.4794
000010 39 14 21 44 4e 51 2e 44 0d 37 82 44 10 17 79 44
       644.316 697.2704 1041.7203 996.36035
000020 fc a7 f2 43 e2 f0 60 44 21 0d 10 44 75 86 05 45
       485.31238 899.7638 576.20514 2136.4036
000030 53 c8 0f 44 a4 dc 4b 44 e8 6e 6f 44 fa 3d bc 44
       575.13007 815.4475 957.7329 1505.9368
000040 f8 59 e8 43 7d 9d c9 44 80 ea fd 44 45 0a 05 44
       464.70288 1612.9215 2031.3281 532.16046
000050 9a 6a 56 45 36 07 94 44 bf 0c 2a 44 c8 1d 80 44
       3430.6626 1184.2253 680.19916 1024.9307
000060 20 b4 f2 44 d1 50 40 44 00 9c 06 44 28 76 3a 44
       1941.6289 769.26276 538.4375 745.8462
000070 49 0b d9 43 cb 41 cb 44 90 71 8b 44 ef e8 d2 44
       434.08817 1626.056 1115.5488 1687.2792

weight f4 [2, 512]
000000 70 33 0c be 4a 43 61 bd da 65 02 3e b3 19 8f bf
       -0.13691497 -0.054995812 0.12734166 -1.1179718
000010 75 00 9a 3e cf 50 4a 3f 03 8a 9b 3f 41 74 e4 3f
       0.30078474 0.79029554 1.2151493 1.7847978
000020 cf 92 e3 bd eb a4 a8 bd 17 2b 1e 3f 0f 76 02 40
       -0.11111986 -0.082345806 0.617845 2.0384557
000030 58 15 5d 3f 58 ee 59 c0 97 59 5b be a0 12 02 3f
       0.8636069 -3.4051723 -0.21420895 0.5080967
000040 ef 5d 2e 3e 89 5a 29 3e 7a 60 de 3e 35 67 4e 3f
       0.1702802 0.16538443 0.4343298 0.8062623
000050 4a 19 c0 be e1 ef e2 be e2 a9 ba be a0 5e 57 3c
       -0.37519294 -0.44323638 -0.36457735 0.013145119
000060 da 25 61 3e e7 d5 9a be e2 7c bf be c2 e3 b3 3f
       0.21987095 -0.3024132 -0.37399966 1.4053881
000070 1f 5e 24 bf 83 fb 81 3f 02 3e 94 3f f5 ac 2f 3f
       -0.6420612 1.015488 1.1581423 0.68623286
000080 a4 cb af bc 6c 14 11 bd 9a 3e 4b 3c 08 85 cb bd
       -0.021459408 -0.035419866 0.012405062 -0.09937483
000090 e0 77 a9 3c 93 12 34 bd ca 24 6a bd 00 fd cd bb
       0.020687044 -0.043963026 -0.05716399 -0.0062862635
0000a0 44 06 25 bd f0 fb 8a bc 84 e0 7d 3d 78 3b 17 3c
       -0.04028918 -0.016965836 0.061981693 0.009230487
0000b0 74 47 8f 3d 60 f0 d9 3d 50 14 93 3d 2a c0 16 3d
       0.069960505 0.10641551 0.07181609 0.036804356
0000c0 72 11 65 3d b8 0c be 3d ef ae ff 3c c4 cd bf 3d
       0.05592484 0.0927977 0.031211345 0.093654186
0000d0 51 f1 9a 3d 33 1d dd 3d 33 8f 6b 3d 20 d6 f4 3d
       0.07565559 0.10796585 0.057509612 0.119549036
0000e0 29 0b d0 3d 12 fe a1 3d 42 c1 49 bd c8 3f ad 3a
       0.10158379 0.07909788 -0.04925657 0.0013217861
0000f0 3c 80 e1 3d e8 df b5 3d f7 df 98 3d d4 34 9c 3d
       0.11010787 0.08880597 0.07464593 0.07627264
000100 90 e2 d9 3b 78 ce 77 3c 12 66 2d 3e 5e d2 12 3e
       0.006649323 0.01512491 0.16933468 0.14338061
000110 20 b5 18 be 58 a5 09 3e 4c e1 11 3e e0 ac 3f bb
       -0.14912844 0.1344198 0.142461 -0.0029247329
000120 48 c7 71 bc c0 83 d9 3a f2 e1 8d 3d fa 10 a0 be
       -0.014756985 0.0016595051 0.06927861 -0.31262952
000130 f8 93 0e be 43 94 6b 3d 3c be b7 3d 1a 22 68 bd
       -0.13923633 0.05751444 0.08971831 -0.056673147
000140 27 f0 ad bd 48 a8 46 bd d4 7b 91 be 93 c8 2d c0
       -0.08493071 -0.04850033 -0.28414786 -2.715367
000150 ba 21 aa be 39 d0 f7 be 0d 3f 18 3f c7 ae 1f 3f
       -0.33228856 -0.4840105 0.5947121 0.62376064
000160 40 83 27 bc f0 e9 84 bb b4 eb 04 3f 62 a6 d3 3f
       -0.0102241635 -0.004056208 0.51922154 1.6535151
000170 e2 92 62 bf 5a 11 01 40 dd 04 c7 3e 60 8f 2b bf
       -0.88505375 2.016684 0.38870898 -0.6701565
000180 54 25 1a 3d 00 e8 04 bd b2 4c 30 3d f8 7e 17 3c
       0.037633255 -0.032447815 0.043041892 0.00924658
000190 e5 38 0c be f8 1e 35 3e 5c 55 1b 3d 7e ab 1a bd
       -0.13693579 0.17687595 0.037923202 -0.037761204
0001a0 00 9f a7 bb 10 54 c2 3c e1 5e 8a 3d 6c 93 bb bd
       -0.00511539 0.023721725 0.06756378 -0.09158978
0001b0 f6 af f1 bd 8a 89 48 3e 62 0f 2d bd 80 c6 c7 3c
       -0.1180114 0.19583717 -0.042251 0.024386644
0001c0 42 19 0f 3e c0 6b 20 3e 33 99 3d 3d f1 3b c9 3f
       0.13974479 0.15666103 0.04628868 1.5721418
0001d0 95 66 48 3f 8c 50 7f 3f a2 37 4c 3e 3c cb 9e bf
       0.7828153 0.9973228 0.19943097 -1.2405772
0001e0 93 92 fe 3d 8c bf 25 3e 65 0d 6b bd 3a 7d 0b 3f
       0.124303006 0.1618635 -0.05738582 0.54487956
0001f0 45 aa 67 bf 98 4b fe bf 70 22 40 bf 4d 92 84 3f
       -0.90494186 -1.9866819 -0.7505255 1.0357147
000200 33 67 c5 3d 7c 64 85 3d ce 4b c7 bf f0 84 5c 3f
       0.09638824 0.065133065 -1.5570009 0.86140347
000210 e6 47 d4 3e 67 a0 a2 be 78 0f b9 bd 28 4e 2a 3f
       0.41461104 -0.31763002 -0.090361536 0.66525507
000220 f6 a0 f1 3d 20 84 0f bc 97 00 e5 3f fd 21 1a c0
       0.11798279 -0.008759528 1.7890805 -2.4083245
000230 26 7e dc 3d 4d 8d 8e 3e 69 20 86 bf 1c d7 88 3e
       0.107662484 0.2784218 -1.0478641 0.26726615
000240 7b 72 90 bd ae d6 97 bd c0 10 bb ba 30 19 b2 bc
       -0.070530854 -0.07413994 -0.001427196 -0.021740526
000250 53 89 ba 3c 4a 6f d2 bd 3f 0a 18 be 64 2b 3e bd
       0.02277056 -0.10275133 -0.14847659 -0.0464281
000260 14 6d 04 be 07 c6 fc bd 3f 9a 35 3d 59 00 1b 3e
       -0.12932235 -0.12342458 0.044336554 0.15136851
000270 3b 42 7c bd 8a cd 30 be 2c 97 ba bd 3e 3a da bd
       -0.0615866 -0.17265907 -0.09110865 -0.1065564
000280 6c d2 a3 3c fa 5d a9 3d 79 db 45 3e 18 3b 12 3e
       0.019997798 0.08269878 0.19322003 0.14280355
000290 c0 8d 20 be ce 2f 8c 3d 72 23 e6 bd 4c 87 c2 3c
       -0.15679073 0.068450555 -0.112372294 0.023746155
0002a0 ac 4c 9b 3c c8 21 5d 3c c9 14 1f 3e bc 81 70 3d
       0.018957458 0.013496824 0.15535273 0.058717474
0002b0 66 5e 0e 3e b0 23 1c be 4e 9d 2b 3e ed 52 ac 3d
       0.13903198 -0.15247989 0.16759226 0.08414254
0002c0 e2 ff 90 bd 1c 0b 04 bd 58 cf c0 3d 3a b7 b1 3f
       -0.07080056 -0.032237157 0.09414548 1.3884041
0002d0 d6 5a ce be 58 fb 72 bf 81 e1 b3 bf 0c a2 e9 be
       -0.40303677 -0.9491477 -1.4053193 -0.45631444
0002e0 40 43 11 bd 2a 10 90 bd 66 fc d8 bf fa 96 03 3f
       -0.035464525 -0.07034333 -1.6952026 0.51402247
0002f0 31 98 87 c0 95 db ad be c5 74 22 be 28 94 c3 3e
       -4.237328 -0.3395659 -0.15864857 0.38198972
000300 e9 44 0c 3e ca 0b 95 3d 3e 63 fe 3f 7e 04 88 bf
       0.13698162 0.07277639 1.9874036 -1.0626371
000310 0d 8b b4 3f 6d 42 b8 be 82 6e a9 bf ec a3 c1 bd
       1.4104935 -0.3598818 -1.3236849 -0.09455094
000320 7e 28 db 3d 2c 9c 8f 3e 85 8d ef 3e 2e 57 dc bf
       0.10701083 0.28048837 0.46787658 -1.7214105
000330 6c f9 c4 bf 8c 3f e8 3f 3e a4 20 3f 40 cd c5 3f
       -1.5388618 1.8144393 0.62750614 1.5453262
000340 89 4c a3 be 96 89 c3 be b2 ba 43 3f 1d 01 ea 3f
       -0.3189433 -0.38190907 0.7645675 1.828159
000350 17 a8 ce 3f ae d6 ae 3f fe 72 ef 3f eb 7e 32 bf
       1.6145047 1.3659265 1.8706968 -0.6972491
000360 9c ed a0 be 8e 45 81 bf cd e3 7d 3e 2d e1 f0 3f
       -0.31431282 -1.0099351 0.2479393 1.8818718
000370 37 10 3d bf 2f c1 3b be 64 25 c1 3e 6e dd 69 bd
       -0.73852867 -0.18335412 0.3772384 -0.057095937
000380 0d cd 23 3f bf 24 36 3f 65 b8 6b 3f a4 a4 64 3f
       0.6398476 0.7114982 0.9207824 0.8931372
000390 b0 d1 17 3f 5a 5b ab 3f 55 e3 3d 3f 1b a4 28 3f
       0.5930433 1.3387253 0.74175006 0.65875405
0003a0 47 06 38 3f 0b ca 2e 3f 11 11 63 3f fc af 17 3f
       0.7188458 0.68277043 0.88697916 0.59252906
0003b0 87 4a 95 3f 4f 1f 91 3f 98 ed 22 3f 25 2b 21 3f
       1.1663369 1.133768 0.6364379 0.6295646
0003c0 fe d0 0b 3e d2 3c 39 3e 32 3e a0 3d 9e f3 c7 bf
       0.13653943 0.18089607 0.07824363 -1.5621221
0003d0 79 e4 5e 3f b0 a3 0f 3e 92 6b e1 3e 2d 9f 8b 3f
       0.8706737 0.14027286 0.44027382 1.0907952
0003e0 de f8 06 3e 2e f2 fd be 1f db c1 3f 6c 7a 19 3f
       0.13180873 -0.4959883 1.5144995 0.59952426
0003f0 7a 35 7d 3f 92 f5 34 3d 95 f1 69 be 89 01 e4 3f
       0.98909724 0.044179507 -0.22846062 1.7812968

bias f4 [2]
000000 ef c9 ec 3f 88 49 ec 3f
       1.8499125 1.845994
